experiments/results/A/models/modelA0.pkl (torch, 50625 bytes, 5 tensors)

layers.0.weight f4 [100, 18]
000000 3a 39 de bd 55 e1 44 be 0e 0d 47 be 04 c0 01 be
       -0.10850759 -0.19226582 -0.19438574 -0.12670904
000010 d0 89 00 3e f5 d8 57 3e aa e4 68 3c 42 c2 57 3e
       0.12552571 0.21078856 0.014214674 0.21070197
000020 c4 3f 3f 3e 8f 4e 2a bc 17 8c 67 3c 9a 92 7d 3d
       0.18676668 -0.010394706 0.014132521 0.06190739
000030 7f e7 44 3e 4d b4 38 3e 95 2d 84 3d 99 d8 4a be
       0.19228934 0.1803753 0.064540066 -0.19809188
000040 62 a3 33 bd 84 de 56 3e fd ae 55 bd 04 b5 67 3d
       -0.043856986 0.2098332 -0.052168835 0.056569114
000050 97 e7 9b bc ae a9 4e 3e 35 6a b4 bd d8 8d 03 3e
       -0.01903133 0.20181915 -0.0880932 0.12847078
000060 ad eb 68 be 91 8e 38 be 31 69 1c be 3c 49 1d 3e
       -0.22746153 -0.18023135 -0.15274502 0.15359968
000070 72 1b 58 3d 54 d7 bf 3b f2 80 b1 bd 5f cd 30 be
       0.05276055 0.0058545265 -0.086671725 -0.17265843
000080 3b bb f7 3d c8 01 0d be 67 5e 5c bd c3 ea 15 be
       0.12096258 -0.1377021 -0.053800967 -0.14640336
000090 9e 49 19 bc f5 f2 56 3e 17 8c 9f bd 8a 92 16 bd
       -0.009355931 0.20991118 -0.07790392 -0.036760844
0000a0 0f 92 27 be ff 05 d5 bd 9a ac 69 bd b1 fe 69 3e
       -0.1636431 -0.10401534 -0.05704937 0.22851063
0000b0 bc ce 3b be 5d c7 a3 bd 1c e3 f5 3d 37 4f eb 3d
       -0.18340582 -0.0799701 0.12006208 0.114897184
0000c0 00 19 6a be a9 8f 8b 3d 3e 04 84 3d 9b 2f 6f be
       -0.22861099 0.068145104 0.06446122 -0.23358004
0000d0 1d 0c 99 bd 9a 33 ff bd ba 95 64 be da ef 5a bd
       -0.074730136 -0.12461014 -0.22322741 -0.053451397
0000e0 35 05 27 3e 0b c7 76 be 8f 7c 28 3e ba 3b 04 be
       0.1631058 -0.24099366 0.16453765 -0.12913409
0000f0 38 ad d4 3b 96 b0 88 3d 9f 45 67 be 6d 7c 12 3e
       0.006490376 0.06674306 -0.22585152 0.14305277
000100 87 f9 bf bd 27 5c 79 3c 3a b2 19 3d 21 1b 13 3e
       -0.093737654 0.015219725 0.037523486 0.14365818
000110 5a 87 78 bd 69 49 99 3d 17 32 3d be c1 17 0b 3e
       -0.060675956 0.07484705 -0.18476139 0.1358328
000120 4f 09 05 be 35 2e cd bc 99 ff 3d 3d 54 fc 72 be
       -0.12991832 -0.025046447 0.046386335 -0.23729068
000130 1f 91 13 3e ce 02 02 3e d4 12 60 be 54 50 f4 bd
       0.14410828 0.12696382 -0.21882182 -0.11929384
000140 b5 3a 80 3d 29 73 1a be ca 1b 80 be 8c af 2d 3d
       0.062611975 -0.15082993 -0.250212 0.042403743
000150 b8 36 b3 3d 1e dc 73 3d 03 73 1c 3e ed 4c 3d 3e
       0.08750671 0.059536092 0.15278248 0.18486376
000160 b3 54 bc 3d 5d 2f 7a be a8 5b 29 bd 80 51 3a be
       0.091958426 -0.2443213 -0.041347176 -0.18195152
000170 af f9 16 be 2b fa 5b 3e 07 67 e3 bd e6 6e 3c 3d
       -0.14743684 0.2148215 -0.11103635 0.0460042
000180 aa 0b d4 bc 8a 47 c9 3d af 2f b5 3d 2c ec 3b be
       -0.025884468 0.09828098 0.088469855 -0.18351811
000190 03 b1 ca 3d 2b a7 0b 3d 6d e8 33 be 76 71 76 3e
       0.098970436 0.03409497 -0.17569132 0.2406672
0001a0 af 93 5c 3e 45 c7 29 bd bf 30 76 3e 25 cb d3 bd
       0.21540712 -0.041449804 0.24042033 -0.10341481
0001b0 33 62 ff 3d a0 33 0f be 22 ea 09 3e fa 19 52 3e
       0.12469902 -0.13984537 0.13468221 0.20517722
0001c0 19 a6 9e 3d 54 e9 5a bc c1 c2 c8 bc df c1 4b bd
       0.07746524 -0.013361294 -0.024506928 -0.049745437
0001d0 0f eb 2f 3e 14 c2 2d 3e 77 f7 63 be 9f c6 38 3e
       0.17179511 0.16968566 -0.22262369 0.18044518
0001e0 9a e7 2d 3e d8 58 fb 3d 6f 6e 9a bd bb f6 a5 bd
       0.1698288 0.12272805 -0.07540595 -0.08103701
0001f0 ef 0a fa 3d 17 71 27 3e d7 a0 22 3e 7e 44 32 3e
       0.12209117 0.16351734 0.15881668 0.1740894
000200 15 df 15 3e 55 3b 27 3d 95 b2 b4 bd 67 3f 7d be
       0.1463588 0.040828068 -0.08823124 -0.24731217
000210 bf 55 03 3e 2b 84 a9 bd 54 eb 39 bd c6 96 69 be
       0.12825678 -0.08277162 -0.045390442 -0.22811422
000220 74 2b 92 be bc 0c 29 bd b3 1e 09 be 08 e0 d4 bd
       -0.28548777 -0.04127191 -0.13390617 -0.10394293
000230 37 f8 09 3e ef 2c 1e 3d 66 c1 bd 3d dc 1f 0a 3e
       0.13473593 0.03861707 0.092654034 0.13488716
000240 83 5d 9b bd 3e 40 fd 3d e1 7e 09 3e 5b 27 7f be
       -0.07586195 0.12365769 0.13427307 -0.24917357
000250 8c 38 81 be ca 6a 1f 3e eb 73 36 be f4 78 a4 bd
       -0.25238454 0.1556808 -0.17817657 -0.080308825
000260 4a 55 59 be 3c cf 58 3e 0a 4c 5e 3e 2f 33 48 3d
       -0.21223941 0.21172804 0.21708694 0.048876937
000270 0c 08 6a bd ef 82 c5 bd 65 68 9a bd 78 28 3b be
       -0.05713658 -0.09644114 -0.07539443 -0.18277156
000280 b2 78 0a bd 45 19 1a 3e e2 c4 49 be ee a6 56 3e
       -0.03380651 0.15048702 -0.19704011 0.20962116
000290 60 30 2f 3d 2a 9e 2c 3c 5c c2 a6 bd b3 4f 31 be
       0.042770743 0.010535756 -0.0814254 -0.17315559
0002a0 ed ae e8 bd e3 c8 18 bd 4f 98 76 bd d3 a6 fb 3a
       -0.113614894 -0.037300956 -0.060203847 0.0019199498
0002b0 b0 8f 15 3e 16 d4 ba bd 2c 19 c4 3d ab a7 9f 3c
       0.14605594 -0.091224834 0.09575114 0.01948913
0002c0 ba ea a9 bd bd f2 26 be 74 90 2f 3e 21 b4 33 3c
       -0.08296724 -0.16303535 0.17144948 0.010968239
0002d0 75 5e 16 be fe 03 fd 39 9a da e1 bd ec e1 31 be
       -0.1468447 0.00048258895 -0.11028023 -0.17371339
0002e0 09 aa 44 be 5d 2c 64 3b 93 0b 5e 3e a5 40 a2 3d
       -0.19205488 0.0034816482 0.21684103 0.07922486
0002f0 cb 1b 3c bd 52 d8 d3 bb ea 00 31 be 31 20 f3 3d
       -0.045924943 -0.0064649964 -0.17285505 0.118713744
000300 29 b4 8c bd 62 b5 dc 3d 45 c7 16 be 59 90 6c be
       -0.068703 0.107767835 -0.14724453 -0.2310194
000310 36 7e 64 be 23 bb 57 3e 6c 0c 68 be 62 a3 f1 bd
       -0.2231377 0.2106748 -0.22660989 -0.11798741
000320 c1 8c cd bd 8a e4 d0 bd 4f e6 fb 3d cd e5 0d 3e
       -0.10036612 -0.1019984 0.12299787 0.13857193
000330 b9 e5 b8 3d e6 36 ac 3d 51 a6 3b be c2 99 43 3e
       0.09028191 0.084089085 -0.18325163 0.19101623
000340 19 72 7c be b5 bd 13 be 06 e3 73 bd 0f 82 cd bd
       -0.246529 -0.14427836 -0.05954268 -0.10034572
000350 d1 19 de 3d 1e 69 42 be a6 25 50 bc aa aa ae 3d
       0.10844768 -0.18985412 -0.012704289 0.08528645
000360 6a c8 9a bd 3b 89 38 be 65 c0 14 3e c0 3d 06 bd
       -0.07557757 -0.180211 0.14526518 -0.032773733
000370 a1 43 62 be 64 bb aa bd 49 ad 15 be e1 34 40 be
       -0.22096111 -0.08336523 -0.14616884 -0.18770172
000380 aa 8e 53 3c b2 c0 40 3d 9c 64 74 bd d8 90 fb 3d
       0.012912432 0.04705877 -0.05966626 0.12283486
000390 84 1e ae 3d 43 ca 59 bd 54 2b 46 3d 48 e7 04 3e
       0.08501914 -0.053171407 0.048381165 0.12978852
0003a0 5c 45 2c 3d 50 07 31 be be b5 b2 bb 1f 74 11 bd
       0.042058334 -0.17287946 -0.0054537943 -0.035511132
0003b0 20 32 42 bd 06 02 11 bc a8 45 2e 3c 8a e5 38 3e
       -0.047411084 -0.00885058 0.0106367245 0.18056312
0003c0 7c 57 28 3e d9 8f 27 3e f6 22 eb 3d a3 ec c9 3d
       0.16439623 0.16363467 0.11481278 0.09859588
0003d0 8f 93 a8 bd 7d 9b 54 3e fb 75 98 bc 28 e9 e8 3c
       -0.082312696 0.20762439 -0.018610945 0.02843149
0003e0 57 6d 8f 3c 0e bd 10 be 35 6a 97 bd 88 67 e4 3d
       0.017508192 -0.14134619 -0.07393304 0.111525595
0003f0 df a0 4e be 0b 22 c8 3d 23 a9 ed 3c 8b 4b 1a be
       -0.20178555 0.09772118 0.029011315 -0.1506788

layers.0.bias f4 [100]
000000 2a 72 dc 3d 1a e0 5a 3d 7d f6 f8 bc 68 05 94 be
       0.107639626 0.053436376 -0.030390972 -0.28910375
000010 eb 4a 40 be cf d2 9a 3d 92 7e 58 be f9 02 30 bd
       -0.18778579 0.0755974 -0.21142033 -0.042971585
000020 2f fc 2e 3e 34 f7 84 3d 21 9e 44 be d3 19 04 be
       0.17088388 0.06492463 -0.19200946 -0.12900476
000030 60 d0 7a 3c 52 2c bd bc 68 16 3c bd 15 46 21 be
       0.0153084695 -0.023092423 -0.045919806 -0.1574939
000040 b8 bd d4 bd 78 f6 63 3e f1 cd 9a 3d 75 5c 90 3c
       -0.103877485 0.22261989 0.075588115 0.017622212
000050 51 e4 6a be e7 60 c6 bd c3 08 d5 3d 9a 22 f0 3d
       -0.22938658 -0.096864514 0.10402062 0.1172535
000060 55 5e 49 3d 24 e9 a9 3c ac f1 51 be d0 1d d2 bd
       0.049162228 0.020741053 -0.20502347 -0.102595925
000070 31 4c 4f bd 47 96 9c 3c 31 3c 72 3d 33 80 bc bd
       -0.05060977 0.019114627 0.059139434 -0.092041396
000080 63 e1 47 be da bb 0a 3e 19 eb 64 3e a1 7d 9a bd
       -0.19519572 0.13548222 0.22355308 -0.07543493
000090 9b cb 1c 3d 92 2e f7 bd dc b9 2e be 33 78 12 3e
       0.03828011 -0.120694295 -0.17063087 0.14303665
0000a0 2a 55 1e 3e 3a 2a 12 3e 3a e1 5c be e1 b5 13 be
       0.15462175 0.1427392 -0.21570292 -0.1442485
0000b0 52 c1 0b 3d 5e 8f 09 be 2c 37 ec bd 48 60 4e 3e
       0.03411991 -0.13433596 -0.11533961 0.20153916
0000c0 fa ca fc 3d d4 6b 84 be db 9e e2 3d e4 b8 09 be
       0.12343402 -0.25863516 0.110654555 -0.13449436
0000d0 73 56 3b be 66 72 ea bd 31 9e c9 3d 7a 94 45 bd
       -0.18294697 -0.11447601 0.09844626 -0.0482373
0000e0 c1 65 04 3d 1e 15 3b be c6 d9 e1 3d 80 24 ac 3b
       0.032323603 -0.18269774 0.11027865 0.0052533746
0000f0 dd 38 31 bd d1 ac ab bd ee ce e9 bd 28 2c 88 bd
       -0.04326712 -0.083825715 -0.11416422 -0.06649047
000100 aa 8e ce 3d 11 cf de 3d 9b be c5 bd 60 e7 cb bc
       0.10085805 0.108793385 -0.09655496 -0.024890602
000110 02 00 ed bc 4d 70 16 be 9b e1 2f 3e ce fa d7 3d
       -0.028930668 -0.14691277 0.17175905 0.10545884
000120 17 08 29 bc fb ed 4c 3e 81 0a fe bb 96 62 ba bc
       -0.01031687 0.20012657 -0.007752717 -0.022752088
000130 42 d7 5e 3d 28 50 a4 bd 39 6f 9d 3d bc 33 ef bd
       0.054404505 -0.08023101 0.0768723 -0.116797894
000140 b1 bd ca 3d dd 9a 19 be de 0e 47 be 0c aa 0d 3d
       0.09899462 -0.15000482 -0.19439265 0.034585997
000150 a7 8d 0f 3e cb 0d fd 3d e2 77 b0 3d f5 98 35 be
       0.1401888 0.123561464 0.08616616 -0.1773413
000160 53 33 76 be 24 65 dc bc ed 1a 8d bd bc fe 0b 3e
       -0.24043016 -0.026903696 -0.06889901 0.13671392
000170 09 8c ea 3d 08 5c 56 be fc 23 20 be bf 0a 49 be
       0.11452491 -0.20933545 -0.15638727 -0.19633006
000180 a4 08 fd 3c 33 dc e1 3c 33 76 28 3e b2 0f bd 3d
       0.03088791 0.02757082 0.1645134 0.09231509

layers.1.weight f4 [100, 100]
000000 14 be 6e 3d 6e 5d 84 bd ae f8 6d bd fb 57 c2 bd
       0.05828674 -0.06463133 -0.058098488 -0.09489437
000010 71 2f 13 3c ca 09 d1 bd 25 14 8f 3c ae f9 c4 3d
       0.008983479 -0.10206945 0.01746566 0.09617935
000020 e7 66 f6 3c 4e ad 88 3d 0d 3e a7 bd 18 f9 07 3d
       0.030078365 0.0667368 -0.08166132 0.03319654
000030 a0 97 d3 bd fd c2 d9 bd 19 a9 80 3d dc 0c af 3d
       -0.103316545 -0.10632894 0.06282253 0.085473746
000040 9c 42 93 bd 65 7e ce bd d3 01 c2 3c 99 1d 2f bd
       -0.07190439 -0.100827016 0.02368251 -0.042752836
000050 9f f1 c5 3c 38 16 a8 bd ef f7 77 3d 63 96 89 bd
       0.024163065 -0.08207363 0.060539182 -0.06718137
000060 41 57 e2 bd 20 ad 7d bd 2d 38 af bd 67 91 1c 3d
       -0.110517986 -0.061932683 -0.085556366 0.038224604
000070 dc 89 8f bd 9f 0f 04 be 67 98 84 bd 53 f5 18 bc
       -0.070087165 -0.12896584 -0.06474381 -0.009335834
000080 99 41 b0 bd 05 7c 8a 3d 70 9c 86 bd cf 72 21 bc
       -0.08606262 0.06761936 -0.06572807 -0.009854033
000090 8e 26 59 bd 7d 64 71 bd 3d 4e 02 3d ba ec 05 bd
       -0.053015284 -0.058933724 0.031812895 -0.032696463
0000a0 33 6c f2 3d 11 41 ca 3c 11 b4 ed 3c da af 02 bd
       0.118370436 0.02468923 0.029016526 -0.031905986
0000b0 50 42 cf bd af 6e ac bc a6 57 51 bd ba 5c 2c 3d
       -0.1012007 -0.021048872 -0.05110898 0.04208062
0000c0 49 cd 31 bd 71 ca 3f 3d d2 93 35 bd d9 b0 39 3d
       -0.043408666 0.046823923 -0.044330426 0.04533467
0000d0 84 07 91 bd 5e da af bc 71 a5 da bd 65 3d f8 bc
       -0.070815116 -0.02146643 -0.10676087 -0.030302713
0000e0 70 f6 c2 bd eb 7b 8d 3d f4 09 47 bc e8 23 87 3d
       -0.095196605 0.06908401 -0.012148369 0.065986454
0000f0 6c c2 c3 bc ba 0b 4a bd 6e a8 c3 3d df 5c 9c 3d
       -0.023896419 -0.04932759 0.0955361 0.07634901
000100 17 35 4f bd 39 26 42 3d 4e 64 a5 bc 26 4e e0 bc
       -0.05058774 0.047399733 -0.02018943 -0.027381014
000110 d0 28 b6 3d 52 b8 4a bc 96 f3 45 bd a1 c3 96 bd
       0.08894503 -0.012373047 -0.048328005 -0.07361532
000120 54 f0 01 bd 4b 45 9c 3d cd dc b1 3c 58 a2 a8 bd
       -0.031723335 0.07630404 0.021711731 -0.082340896
000130 2b 7b a0 3c 13 e1 ae 3d 61 66 09 3d 22 70 26 3d
       0.019589981 0.08539023 0.0335449 0.040634282
000140 46 49 a9 bd 3c 06 c4 bd 8d 7e 56 3d 55 95 a2 bd
       -0.08265929 -0.095715016 0.052366782 -0.07938639
000150 0b fd 1e bd e8 05 f9 bd 0a 89 0c be 85 81 82 3d
       -0.03881554 -0.1215933 -0.13724151 0.0637236
000160 b1 3e 1e bd 41 51 c1 bd 40 4d 75 3d d7 bb ed 3b
       -0.038634006 -0.09439326 0.059888124 0.0072550583
000170 a7 93 3d 3d 0a 79 bb bd 9e 88 76 3c af 6a 9a 3b
       0.04628339 -0.09153946 0.0150472205 0.0047124247
000180 01 c9 b4 bd c6 d2 d6 3c 59 e3 8e 3d fa b0 0b 3b
       -0.08827401 0.026223551 0.06976957 0.0021315203
000190 d6 67 0b bb e7 09 a6 3d cd cd 4d bb 8d 2d ed bc
       -0.0021271608 0.081073575 -0.0031403184 -0.028952384
0001a0 ff f2 be 3d b0 43 af b9 41 e4 d7 bd 86 22 62 3c
       0.093236916 -0.00033429032 -0.10541583 0.013802176
0001b0 d0 78 2b bd 27 9e 4a bc e0 c5 e3 3c 5a 59 63 3d
       -0.041863263 -0.012366808 0.027804315 0.055505134
0001c0 33 c7 0b bb 2d 5d 70 bc 1e 5c 09 3d 63 12 a6 3d
       -0.0021328449 -0.014670652 0.033535115 0.08108976
0001d0 0e ab e1 bd c1 1d b4 3c bb 85 aa bd e7 05 19 bd
       -0.11018954 0.021986844 -0.08326288 -0.037359145
0001e0 c3 55 6d 3c b5 e1 9f bd b7 a7 fa ba 97 fd dc bd
       0.014485779 -0.07806722 -0.0019123469 -0.10790556
0001f0 2e 82 e0 3c aa ec 80 3d 97 4b 65 3d de 9c 8b 3c
       0.027405825 0.0629514 0.05598029 0.017042574
000200 10 1a 03 3d fc c1 4c bd 20 c5 9a bd 89 66 2c 3d
       0.032007277 -0.049989685 -0.0755713 0.042089973
000210 b0 ac 8d bc 27 77 79 3c c3 d7 44 3d 82 ba 1c 3d
       -0.017294258 0.015226162 0.04805733 0.038263805
000220 71 b7 b4 bd e1 aa d0 3c b4 4b df bb d8 23 95 bd
       -0.08824051 0.025472106 -0.0068144444 -0.07282227
000230 65 c1 cc bd 88 ed 01 bd ca 75 ca bd ce ce a1 3c
       -0.099978246 -0.031720668 -0.09885748 0.019751932
000240 2f 42 c2 3c 92 ff 9c bd 38 f6 c7 bd 9a 37 05 3d
       0.0237132 -0.07665934 -0.097637594 0.03252373
000250 e3 52 83 bd 44 ec 5b bd 30 e9 d2 bd 80 39 76 bd
       -0.06412294 -0.053692117 -0.10298383 -0.06011343
000260 47 9d 91 bd ca a5 b7 bd 2f 78 a1 bd 84 4d a8 bd
       -0.071100764 -0.08967169 -0.07884251 -0.0821791
000270 a9 87 d8 3b c8 1a 84 3d a7 37 55 3d 33 38 7d 3c
       0.006607969 0.064504206 0.052055027 0.0154552935
000280 7e c9 8d bd a3 6f 27 bc 5c c9 29 bd 19 a4 2e 3d
       -0.06923197 -0.010219487 -0.041451797 0.042636964
000290 36 63 f0 bc f2 3a 7b 3d 07 0b 8d 3d f3 aa 39 3d
       -0.029344182 0.06133551 0.06886869 0.045329046
0002a0 b5 8a 08 3d bf b2 b5 bd 00 d1 f6 bc fd ce de bc
       0.033335406 -0.08871984 -0.030128956 -0.02719831
0002b0 65 74 83 3d d7 fe a6 bd 1a 83 38 3d e9 a2 b3 bd
       0.06418685 -0.081540756 0.045046903 -0.08771307
0002c0 f9 45 81 bd 0a 53 9b bd ba 38 b3 bc c2 14 08 3c
       -0.06312174 -0.07584198 -0.021877635 0.00830573
0002d0 1e 74 46 3d 0d 3e 9d 3c 4a 06 44 3d 32 d7 47 3c
       0.04845058 0.019194627 0.04785756 0.012197303
0002e0 4e ae 39 3d 78 5e cc 3b d6 fe 04 bd 4a c2 38 bd
       0.045332246 0.0062368475 -0.032469593 -0.045107163
0002f0 29 7d a5 3d 28 8c 67 bc eb 15 30 bd 37 1a d3 bd
       0.08080513 -0.014132537 -0.042989653 -0.103077345
000300 d8 50 e4 3c 5a be 4f 3d f8 db 94 3d 3d 14 55 bd
       0.02787058 0.050718643 0.07268518 -0.052021254
000310 3b 52 ea b9 89 0f 06 3d f7 15 1b bd 1e 74 e7 3c
       -0.00044693224 0.03272966 -0.037862744 0.028253611
000320 43 af 18 bd 3a e2 4b bd ed f9 9c bd 87 e7 b6 3d
       -0.037276518 -0.049776293 -0.07664857 0.08930879
000330 eb 75 56 bd 29 ba a3 bc 08 09 94 3d ac 33 93 bd
       -0.05235855 -0.019986229 0.07228285 -0.0718759
000340 8f 18 17 bd 87 63 69 3d 68 fa 5e bd 29 69 b4 bd
       -0.036888655 0.056979682 -0.054438025 -0.0880912
000350 d9 61 67 3d 29 19 a1 3d 18 40 00 bd e9 0d 6e 3d
       0.0564898 0.07866127 -0.031311125 0.058118735
000360 40 b3 54 bd dd 82 e0 bd b1 aa 10 3d 32 73 d9 3c
       -0.05192876 -0.1096246 0.035319034 0.026544187
000370 cf a6 b7 bd 18 69 05 bd bc 14 10 3d 62 59 81 bd
       -0.08967363 -0.03257093 0.035176024 -0.063158765
000380 f1 95 92 bd 56 e1 dc bd f5 e3 9a bd e4 eb a6 bd
       -0.07157505 -0.10785167 -0.075630106 -0.08150461
000390 e6 86 a4 bd de ad 23 3d 05 4a af bd 9f ef 02 3c
       -0.08033542 0.039960735 -0.0855904 0.0079917
0003a0 66 46 b8 3d a3 ea 2d 3d 03 7f 85 bd ee 61 d0 bd
       0.089978024 0.042460095 -0.06518366 -0.101749286
0003b0 40 ea a1 3d 79 14 ec bc f1 c4 85 3d 26 53 8e bc
       0.07906008 -0.028818356 0.06531704 -0.017373633
0003c0 33 62 32 3d 18 5d 15 bd 05 3d ab bd 5a a0 85 3d
       0.04355068 -0.036465734 -0.08361248 0.06524725
0003d0 63 0e 4f 3c fc f6 fd 3d 07 33 9b bb 3c a9 87 bd
       0.012637707 0.12400624 -0.0047363075 -0.06624076
0003e0 e5 5a 97 3d f3 ec 33 3b 3e 7d b2 bb 9d f3 2e 3c
       0.07390384 0.0027454465 -0.005447059 0.010678199
0003f0 0d ea a5 bd f3 b6 5e 3d fd c0 a5 3d 21 3a 97 bd
       -0.08101282 0.054373693 0.0809345 -0.07384134

layers.1.bias f4 [100]
000000 75 3f 94 bc f9 ee ce bd 51 ad 79 bd 13 41 34 3d
       -0.018096665 -0.10104174 -0.060956303 0.044007372
000010 eb 3f 88 bd ab 0a e2 bb 7a 23 40 bd 63 95 ad bd
       -0.066528164 -0.0068982444 -0.046908833 -0.08475759
000020 5a d1 53 3d 9c d7 27 bd 1d 1e 7b 3d 66 9a c9 bd
       0.051713325 -0.040977105 0.061308015 -0.09843902
000030 93 d8 88 3d 3e 56 76 bd e9 ec 6b bd db 01 8f bd
       0.06681933 -0.06014084 -0.057598982 -0.06982776
000040 64 80 90 bd d3 60 9d 3d 7a 17 b7 3d 85 33 67 39
       -0.070557386 0.076844834 0.08940025 0.00022049069
000050 9e 54 9c bd 67 23 a0 3d 2a 40 b3 3c 41 66 f0 bc
       -0.07633327 0.078192525 0.021881182 -0.029345633
000060 30 f5 11 3d 1b 41 94 3d a5 d8 c1 bd 17 ff cf 3a
       0.03563422 0.072389804 -0.0946515 0.0015868869
000070 45 da 88 3d 72 46 0b bd 4d d6 60 3d 6e 7a d0 bd
       0.066822566 -0.03400273 0.054891873 -0.101796016
000080 3b e7 c9 3c 60 db 10 3d 3f 65 33 3d f2 47 47 3d
       0.024646392 0.035365462 0.043797728 0.048652597
000090 46 f0 a9 3d f6 ce 00 bd 7d 52 64 bd 22 70 2d bc
       0.08297782 -0.031447373 -0.05574273 -0.010585817
0000a0 fb 1d b3 3d 27 91 22 3d 04 44 c1 bc 44 ba ec 3c
       0.08745953 0.03968921 -0.023592003 0.028897412
0000b0 58 91 d0 bd 88 21 66 3b 44 30 3c bd 1c 3f fb 3c
       -0.10183972 0.00351152 -0.045944467 0.030669741
0000c0 b8 ae fd bc a6 73 88 bc 67 a6 7b bd 4c 41 94 bc
       -0.030967101 -0.016656708 -0.06143799 -0.018097542
0000d0 eb de a6 3c f1 93 c3 bd 39 56 ca bd 62 66 82 bd
       0.020369967 -0.09549702 -0.09879727 -0.06367184
0000e0 97 d4 8c 3d 99 3f aa bc 23 a9 1d 3c 20 33 b2 ba
       0.06876486 -0.020782279 0.009622845 -0.0013595559
0000f0 bc 2b c9 bd 6a 87 2f 3d 06 7e 59 3d fb d9 93 3d
       -0.09822795 0.04285375 0.0530987 0.07219311
000100 c2 14 7f 3c 50 48 9b bd fc f9 62 3d 3f 9a 60 bd
       0.015568914 -0.07582152 0.055414185 -0.0548346
000110 cd 97 4b 3c 8f 62 a2 bd 07 40 2b bd 6e f4 b3 bd
       0.012426329 -0.07928955 -0.041809108 -0.08786856
000120 87 fa b4 b9 a4 1e 87 3d 93 99 91 3d 72 a0 19 bd
       -0.00034518933 0.06597641 0.0710937 -0.03750653
000130 ec c2 a6 3d 35 b3 a3 3c 61 f1 d5 3d f5 82 a1 3c
       0.08142647 0.019982914 0.1044643 0.019715765
000140 96 a1 d7 bd a2 67 d9 bd 91 8c 94 3d ed 36 c8 bd
       -0.10528867 -0.106154695 0.072533734 -0.09776101
000150 1b 7c 81 3d ad 1c c2 bc 03 00 a1 bd ec e1 66 bd
       0.06322499 -0.023695314 -0.0786133 -0.0563678
000160 a7 ea 81 bd d4 64 d4 bd e0 64 a3 3d 8d 02 bd bc
       -0.063435845 -0.10370794 0.07978225 -0.023072505
000170 6a ff 9e 3d a5 b4 53 3b fa 74 9a bd a5 1b 8f bc
       0.0776356 0.0032303717 -0.07541843 -0.017469237
000180 b1 f1 a2 3d 1f 0e b2 bd 87 da 12 bd 81 00 78 3c
       0.07956255 -0.086941 -0.035852935 0.015136839

layers.2.weight f4 [1, 100]
000000 08 bf 1e bd 5a 14 2f bd df 16 8e bc 66 58 b3 3c
       -0.0387564 -0.04274402 -0.01734489 0.021892738
000010 2d d3 9b 3d 5f eb 52 bd 27 57 d1 3c 9c 8a 02 3d
       0.07608638 -0.051494 0.025554253 0.03187047
000020 ec 0f e1 3c d5 8b 04 bd 49 e4 75 bb 27 58 0c bd
       0.027473412 -0.032359917 -0.0037520102 -0.034263756
000030 70 8e 1b 3d 49 f0 74 bd ed ca 7c 3d 23 ef b3 bd
       0.037977636 -0.059799466 0.061716963 -0.08785846
000040 f5 e0 75 bd 76 d2 8d 3d e0 51 58 3d a8 82 1c 3d
       -0.06002899 0.06924908 0.052812457 0.03821054
000050 02 94 55 bd 3e c2 80 3d d6 d0 4f 3d d0 5c db bc
       -0.052143104 0.06287049 0.05073627 -0.026777655
000060 ed e4 27 bd 05 57 4c bd 75 1d 9f bd 46 fc 87 bd
       -0.040989805 -0.049887676 -0.0776929 -0.06639914
000070 a5 52 f1 bc 13 19 89 3d a3 94 95 bc 82 24 46 bd
       -0.029458353 0.06694236 -0.018259352 -0.04837466
000080 78 e0 4e bd cd f6 44 3b 8f 8c 87 3d 8e ab b4 bc
       -0.05050704 0.0030054331 0.06618606 -0.02205446
000090 b4 39 39 3b cc 0b 81 bd fb ee a2 3d 8e ba e9 3c
       0.0028263154 -0.06301078 0.07955738 0.028531339
0000a0 7e fa 21 3c 20 3e a8 3d 8b ee 79 3c b4 38 31 3d
       0.009886382 0.082149744 0.015254627 0.043266967
0000b0 9d be 79 bd e4 56 1b bd 1d fe 97 3d 9f b4 4a bd
       -0.0609728 -0.037924662 0.07421515 -0.04948866
0000c0 a5 0c af 3d 6d 0a fa bc 2c 2b 22 3d 6f e0 bf 3c
       0.08547334 -0.03052255 0.039591953 0.023422448
0000d0 00 69 74 bd d8 55 99 3d f1 93 ed ba 16 4e a3 3c
       -0.05967045 0.074870765 -0.0018125755 0.019934695
0000e0 45 16 69 3d 05 58 27 3d 00 11 8f 3d 37 ce 41 3c
       0.056906004 0.040855426 0.06985664 0.011828951
0000f0 37 b4 1e 3b 4e 42 60 bd 93 28 6d bd 95 be 1e 3d
       0.0024216303 -0.054750733 -0.057900023 0.038755972
000100 d5 80 9c 3d 17 9b 9d 3d 89 f3 f9 3c 63 fa 43 bd
       0.0764176 0.07695597 0.030511634 -0.04784621
000110 92 81 3d 3c 80 0e 8d 3d 63 ad 12 bd b2 7d 7a bd
       0.0115665365 0.06887531 -0.035809886 -0.06115503
000120 46 7b 91 bd dc af 8d bd 4d 4f 9c bd 7a be 46 3c
       -0.07103591 -0.06918308 -0.07632313 0.012130374
000130 22 c9 2a 3a fc e0 a3 3d 41 f1 b1 3c 09 ce 33 bd
       0.00065149565 0.08001897 0.021721484 -0.043897662
000140 51 d7 d7 bc 16 e6 22 bc 8e cb e4 3a 42 b7 f9 3c
       -0.026347788 -0.009942552 0.0017455684 0.030482892
000150 63 c0 e0 bc 70 d5 37 3b 2d be 6a 3b 06 3e ea bd
       -0.027435487 0.0028050803 0.003581892 -0.11437611
000160 06 34 99 3d e4 46 e0 bd 4a 36 92 3d d8 9d b7 bc
       0.07480626 -0.10951021 0.07139261 -0.022414133
000170 01 83 03 bd 94 af 91 3d a2 b7 87 bd 71 d1 fd bc
       -0.032107357 0.07113567 -0.06626822 -0.030983659
000180 41 53 54 bd 95 cf f8 37 29 1d a5 3d 7d 9f b3 bd
       -0.05183721 2.9660567e-05 0.080622025 -0.08770654
