experiments/results/A/models/modelA4.pkl (torch, 50627 bytes, 5 tensors)

layers.0.weight f4 [100, 18]
000000 5f 7b 51 bd e6 9f b7 bd d1 1d c8 3c 08 e6 c0 3d
       -0.051143046 -0.08966045 0.02442828 0.09418875
000010 04 1c 55 bd 00 9a 0d 3e 4b 7d 6b be 1b 1d 2b be
       -0.05202867 0.13828278 -0.22997014 -0.16710322
000020 df 39 26 bd a6 95 ce 3d cb 50 e3 3d b1 bd 02 3c
       -0.040582534 0.10087137 0.110993944 0.007979796
000030 32 6d 02 3d 5c dd e3 bc 78 97 04 be ad 70 54 bd
       0.031842418 -0.027815513 -0.12948406 -0.05186527
000040 c2 52 5e 3e 2f ea 4c be b7 f8 5d be e2 b2 c5 3d
       0.21711257 -0.20011209 -0.21676908 0.0965326
000050 c5 a6 88 bd 29 44 0a 3e a2 89 05 3e 41 cf 48 3e
       -0.06672434 0.13502564 0.13040784 0.19610311
000060 38 f2 dd 3d 24 f7 cf 3d 11 56 1c 3d 93 8f 42 be
       0.10837215 0.1015456 0.038168017 -0.19000082
000070 0c c9 1b bc 6c cb 8d bd f4 1c 56 3e 5f 3d 76 3e
       -0.0095083825 -0.06923565 0.20909482 0.24046849
000080 bf 58 07 3d a5 9e 2f 3e 08 a6 aa 3d 84 ee ea bd
       0.03304362 0.17150362 0.08332449 -0.114712745
000090 7a d8 8d 3e 36 6b 96 bd 7b 24 72 3d fd f0 05 3d
       0.2770422 -0.073446676 0.05911682 0.032700527
0000a0 5a c0 e9 bd 20 53 28 be b6 ed 52 be 01 bd 81 bd
       -0.11413641 -0.1643796 -0.20598492 -0.06334878
0000b0 47 ff ca 3d 3e 7e ed bd 95 f7 85 bd 70 1a a8 bd
       0.099119715 -0.115963444 -0.06541363 -0.082081676
0000c0 98 7f b0 bb a0 d4 35 be f3 4e 57 3e 1a 01 14 be
       -0.005386304 -0.17756891 0.2102621 -0.14453545
0000d0 f1 9f c9 3c 98 6a 9e 3d dc e5 b6 bd 61 a9 c5 bd
       0.024612399 0.07735175 -0.08930561 -0.09651447
0000e0 0e 61 e2 bd 53 35 11 3d e8 29 12 3e a1 36 1a 3e
       -0.11053668 0.035451245 0.14273798 0.15059902
0000f0 25 cf 15 be 9f 71 04 3e 9d 37 59 3d 6a a2 0e 3e
       -0.146298 0.12933968 0.053031553 0.13929144
000100 e0 e4 39 be 77 ef 1f bc e0 6e df 3c 24 77 5f be
       -0.18153715 -0.009761683 0.027274549 -0.21822792
000110 ff 1d c4 bd 6f cb f9 bd 59 37 24 3e 0d f8 6a bd
       -0.09576034 -0.12197005 0.16036738 -0.057365466
000120 ac 07 63 be 6a 34 8f 3d 09 0d 99 3d 45 ab 31 be
       -0.22170895 0.06992419 0.074731894 -0.1735049
000130 e4 4d 62 3e dc da 5a 3e 59 29 2a be ed 12 c6 3b
       0.22100025 0.2137255 -0.16617335 0.0060447366
000140 d2 a2 06 3e 23 b6 6e be 8f 7f 4c 3e 6a f0 cd bd
       0.13148049 -0.23311667 0.19970535 -0.10055621
000150 1b e6 68 3e 6e 19 fd 3c 0a 9e 50 3e f9 c2 83 3d
       0.22744028 0.030895915 0.20372787 0.064336725
000160 94 67 0b be 5b 6c fa 3d 2b d6 27 3e f0 4a 36 3e
       -0.1361373 0.122276984 0.16390292 0.17802024
000170 a0 50 f7 bd b0 e3 fc bd 29 ba 2a bd 4b 5c e9 bd
       -0.12075925 -0.123481154 -0.041681442 -0.113945566
000180 49 8e d7 3d e5 68 1a be 4c 02 e8 39 6a c8 02 3e
       0.105251856 -0.15079077 0.000442522 0.12771764
000190 b4 1a f6 3d 09 ea 1b bd 84 c5 87 bd 32 34 07 be
       0.12016812 -0.03806499 -0.0662947 -0.13203505
0001a0 f0 8b 0c bd fc 9c e7 bc c0 97 70 be 78 61 97 bd
       -0.034313142 -0.028273098 -0.23495388 -0.073916376
0001b0 8e 58 9c bd 40 02 02 be 03 3d 1f bd e5 91 6e be
       -0.07634078 -0.12696171 -0.038876545 -0.23297842
0001c0 92 89 24 be 92 52 05 be ee fd 1a 3e 95 40 4a 3e
       -0.16068104 -0.1301978 0.15135929 0.19751199
0001d0 3f 14 36 3e 14 a6 08 bd c7 f8 17 3e b9 e4 43 bd
       0.17781161 -0.03336151 0.14840995 -0.04782555
0001e0 fe 42 f2 3d 31 f9 01 3e b5 ec 28 be ca 48 93 bc
       0.11829184 0.12692715 -0.16496547 -0.017979044
0001f0 8d 52 46 be 9d cd e3 bd 7d 70 d2 3c e2 80 27 3c
       -0.19367428 -0.11123202 0.025688404 0.010223599
000200 9f c5 2d be ef 19 57 3e d3 9e 56 be ec da 89 3d
       -0.16969918 0.21005987 -0.20959024 0.06731209
000210 66 e0 1a be 08 90 bd 3d 92 9f 47 be 21 3c 3b 3e
       -0.15124664 0.092559874 -0.19494465 0.18284656
000220 3d a0 c3 3d 46 ce 20 3c c5 11 68 be 25 c6 86 3c
       0.095520474 0.009814804 -0.22663029 0.016451905
000230 ea f4 ce bd 12 5f f8 bd 28 a2 46 be ff f8 e1 3d
       -0.101053074 -0.12127508 -0.19397795 0.1103382
000240 9f 2a 40 be 84 ef 47 be c5 0a 56 be a5 10 ab bc
       -0.18766259 -0.19524962 -0.20902546 -0.02088196
000250 2e f4 3d 3d 70 f4 b2 ba bd 21 af 3d f0 15 24 3e
       0.046375446 -0.001365317 0.08551357 0.16023993
000260 fc b0 01 3e b0 e0 aa bd f2 0e 04 3e 7a ae bc 3d
       0.1266517 -0.08343637 0.12896326 0.09212966
000270 aa 81 4c be 53 a8 f2 3d cf 1a eb bd 40 70 8f 3c
       -0.19971338 0.118485115 -0.11479723 0.01750958
000280 52 ab 02 3a 82 68 f7 bb 1d b3 38 be b3 c8 ec 3d
       0.0004984635 -0.0075503 -0.18037076 0.11561718
000290 ab a0 90 bd 27 3b a7 3d a3 b6 d6 bd f4 bd dd 3d
       -0.07061895 0.08165579 -0.10484054 0.10827246
0002a0 ce c6 68 3a 98 66 74 3e 04 e1 2f 3e 20 2b 67 bd
       0.0008879722 0.23867261 0.1717568 -0.05643761
0002b0 30 62 6a bd 21 84 29 be 2e 7d d9 3c 12 a7 0e be
       -0.057222545 -0.1655431 0.026548948 -0.1393092
0002c0 cc 34 0f be 30 f1 20 bd 79 33 0a 3d 4f 37 5f be
       -0.13984984 -0.039292514 0.033740494 -0.21798442
0002d0 e3 38 9c 3d b1 b8 8a 3d 95 dd fa bd c0 18 b9 bd
       0.07628038 0.06773508 -0.12249295 -0.09037924
0002e0 e1 bf ed 3d 36 e3 a7 bc ef 90 28 be b5 57 8e 3d
       0.116088636 -0.020494085 -0.16461538 0.069503225
0002f0 f8 e9 77 bd ce 29 6e be a6 74 01 3e 72 4f 82 3c
       -0.060525864 -0.23258135 0.12642154 0.015907023
000300 ed b4 4f 3e cb 7a 4e 3d 6c ba 43 3e 77 34 7f be
       0.20283861 0.050410073 0.19114083 -0.24922357
000310 e3 e0 04 3e 46 fc b9 bd c6 b2 08 be 02 7c af bd
       0.12976412 -0.090813205 -0.13349447 -0.085685745
000320 26 01 fa 3d b1 30 35 3e e6 45 02 3e a7 1a f9 bc
       0.1220725 0.17694356 0.12721977 -0.030408217
000330 49 9b e0 3c 87 48 f9 bc 70 64 54 be a2 d5 3e 3e
       0.027417796 -0.030430092 -0.20741439 0.18636182
000340 98 25 a9 3d 1a e4 4a be c0 6f 45 be 6c b6 2e bd
       0.082591236 -0.19813576 -0.1928091 -0.04265444
000350 1f 26 16 3e 90 28 f4 bd a6 39 93 3d b3 f2 c1 3d
       0.1466298 -0.11921799 0.0718873 0.09470119
000360 ec 1c 47 bd b8 8b 9b 3c 7a dd 70 bc db 42 75 3d
       -0.048611566 0.018987522 -0.014701242 0.05987821
000370 1c 5f 35 3e 8b b1 2e bc 2a f2 46 3e 03 b0 01 3e
       0.17712063 -0.010662447 0.19428316 0.126648
000380 4e 1f a2 3b 25 02 01 be e4 e5 a0 3c bd f8 df bd
       0.0049475795 -0.12598474 0.01964087 -0.10936115
000390 50 16 c4 3d b0 0c 30 3e ee e2 40 bd f1 4c 73 3c
       0.09574568 0.1719234 -0.047091417 0.014849887
0003a0 59 df c8 bd d8 7c 86 bd ea f8 35 be 43 af 50 bd
       -0.09808225 -0.06566781 -0.17770734 -0.050948393
0003b0 be 11 35 3d 6c 44 2d 3e 05 e7 1a 3e 42 5a 3a be
       0.044206373 0.16920632 0.1512719 -0.18198493
0003c0 4e 88 0e 3e d7 63 d0 bd 14 59 1b 3e 8d ce b2 3d
       0.13919184 -0.10175293 0.151707 0.08730803
0003d0 78 0f 77 be 82 23 1c 3e e2 a9 67 be 8f 10 1f 3e
       -0.24126995 0.1524792 -0.22623399 0.1553366
0003e0 5b 24 2b 3e ac 36 4d 3e 7c c4 e3 3d 67 d0 8c 3d
       0.16713087 0.20040387 0.11121461 0.06875687
0003f0 3c 8e 0c 3d 81 b5 1a be 9b b1 a8 bb 0c af 66 3b
       0.034315333 -0.15108301 -0.0051481253 0.003519955

layers.0.bias f4 [100]
000000 55 65 04 be f4 67 c5 bb 86 ea ed bd b3 f9 8f 3b
       -0.1292928 -0.006024355 -0.116169974 0.00439378
000010 e0 10 93 bd 0e 8b 23 3e c3 a1 2a be 61 90 a5 39
       -0.07180953 0.15971014 -0.1666327 0.00031578823
000020 1c cd 9e bd 87 45 29 be ba 92 34 3e 59 5e bf bd
       -0.07753965 -0.16530429 0.17634097 -0.09344167
000030 4f 48 c9 3d 82 f5 13 bc 81 db b1 bd cf 39 3a 3e
       0.09828245 -0.009030702 -0.08684445 0.18186115
000040 a3 15 71 bd e4 9a bf bd f9 f3 22 be 73 53 33 be
       -0.058858525 -0.09355715 -0.1591338 -0.17512302
000050 cb 42 29 be 47 e1 ba bd 80 27 6b be 87 b6 d5 bd
       -0.16529386 -0.091249995 -0.22964287 -0.10435205
000060 dd be b7 bd 32 05 a4 3c e6 04 f1 bd f3 8a 2e 3e
       -0.08971951 0.020022009 -0.117685124 0.17045192
000070 41 c4 bb 3d ad 63 fd 3d 97 84 46 be c8 e8 a5 bc
       0.09168292 0.12372527 -0.19386517 -0.0202526
000080 c2 ad d8 3a de 2c 0c bd a9 1d 54 3d bf 9e cb bd
       0.0016531276 -0.034222476 0.0517861 -0.09942388
000090 3a fe 1d be 0c 1c 32 be 7c e6 6f be 7f 7d da 3d
       -0.15429011 -0.17393512 -0.23427767 0.10668468
0000a0 4a 92 b0 3d e7 75 16 be 9b 99 ce 3d 0d ec 26 3e
       0.086216524 -0.14693414 0.10087892 0.16300984
0000b0 70 41 71 be b3 5f 0c 3e 96 5b 40 bd 1d 10 10 3c
       -0.23560119 0.13708381 -0.046962343 0.008792904
0000c0 7a 02 c0 bc 3b fb b9 3d b9 f7 6b 3c 44 a9 46 3e
       -0.02343868 0.090811215 0.014402323 0.19400507
0000d0 78 bf 18 3c d8 a6 3d 3e fb 44 70 3d 7a df 1e be
       0.009322993 0.18520677 0.058659535 -0.15514937
0000e0 09 29 19 3e 03 f5 41 be b4 75 1b 3e e0 d9 d7 3d
       0.1495706 -0.18941121 0.15181619 0.10539603
0000f0 35 af c7 bb 94 f5 2b be 38 90 44 3e 5a 68 b9 bd
       -0.0060938844 -0.167929 0.1919564 -0.090531066
000100 44 5a 16 3d d6 63 11 be 82 20 32 be ec 1f d7 bd
       0.036707178 -0.1419824 -0.17395213 -0.105041355
000110 50 fe 15 3e 7e 24 73 3e a6 65 94 bd 78 3c 2b be
       0.14647794 0.2374439 -0.072459504 -0.16722286
000120 4b d5 3d 3e 71 bc f1 3d 97 47 cf bc 40 65 38 3e
       0.18538396 0.118035205 -0.025302691 0.18007374
000130 e9 d1 e6 bd 90 14 6f be 8b 5e 09 be 2f 6b 53 be
       -0.11270506 -0.23347688 -0.13414972 -0.20646356
000140 44 44 6d bd 60 f9 e5 3d 89 a1 33 3e 4f 13 13 be
       -0.05792643 0.11229205 0.1754209 -0.14362834
000150 06 e8 05 3e 51 ec 79 be bf 6f d5 3d 1b 41 84 bb
       0.13076791 -0.24406554 0.104217045 -0.0040360815
000160 55 b9 20 3d 95 77 3c be 4e 66 25 3d b3 3f db bc
       0.039239246 -0.18404992 0.04038077 -0.026763773
000170 96 8c f6 3d 4e f7 f0 3d cf 4a 01 be 7d e5 18 3d
       0.120385334 0.117659196 -0.12626193 0.037328232
000180 79 5c 4e 3d a1 32 30 3e 32 8d 44 be 3d 29 32 3e
       0.050381158 0.17206813 -0.19194487 0.17398544

layers.1.weight f4 [100, 100]
000000 59 2c 2a 3d 4c e8 db bd 36 b6 91 3c d5 1c 68 3d
       0.0415462 -0.107376665 0.01778708 0.05666812
000010 d9 39 01 be 75 ec 54 3c 25 b4 2a bc 9b db 4a bc
       -0.12619723 0.012995829 -0.010418926 -0.01238146
000020 b6 67 8f bd 1e b3 e7 bc 45 25 70 3d 57 91 49 3d
       -0.07002203 -0.028283652 0.058629293 0.049210873
000030 fa 10 48 bd 92 b0 03 3d ba 13 8a 3d cf 14 9c bd
       -0.048844315 0.032150812 0.06742044 -0.076211564
000040 62 56 9d 3d de 72 53 3c fa ab 29 bd bc 9b 51 3d
       0.07682492 0.012905804 -0.041423775 0.05117391
000050 83 ae 9c 3d bc 98 0a bd da 50 a3 bc 85 2e 61 3d
       0.07650473 -0.033837065 -0.019936014 0.054976005
000060 e9 53 95 3d 10 37 8c 3d a2 a3 a4 3d 68 74 4d 3d
       0.07291395 0.0684644 0.08039023 0.05015984
000070 98 66 c3 bd 06 05 ac 3d 5b a0 96 bd 91 0d b0 bd
       -0.095410526 0.08399396 -0.07354804 -0.085963376
000080 9f 69 b6 bd f4 1e ba 3d 19 a7 aa bd a2 9c 99 bd
       -0.089068644 0.09087935 -0.083326526 -0.075005785
000090 22 76 c4 3d fb b0 81 3d ef 16 35 3d 13 ea 19 3d
       0.095928445 0.063325845 0.044211324 0.037576746
0000a0 99 e7 61 bd bb 34 1d 3d 13 6c de 3a 43 c0 23 3d
       -0.05515251 0.038380366 0.0016969464 0.039978277
0000b0 37 be a6 3d ea bc 9f 3d 5f fe 18 bd 29 d9 82 3d
       0.08141749 0.077997044 -0.037351962 0.06389076
0000c0 6b bd 00 3d 96 70 94 bd 62 cb dd 3c db 31 b3 bc
       0.031430643 -0.072480366 0.02707452 -0.021874359
0000d0 a5 6f bb bd d5 b4 b4 3d ca e1 26 3c 49 7e 8d bd
       -0.09152154 0.088235535 0.010185668 -0.069088526
0000e0 a4 15 38 3d 2d fd 99 3d 36 c1 f6 bc 2a a1 a3 3c
       0.044942513 0.075189926 -0.030121427 0.01997431
0000f0 d0 22 47 bc df d1 e9 3c 9d 57 9e 3d 47 4a d7 3c
       -0.012154296 0.028542457 0.07731555 0.026280535
000100 e6 9a 90 3d 27 1f 22 bd 30 37 3f bd a2 40 ab bd
       0.070607945 -0.03958049 -0.04668349 -0.08361937
000110 70 d9 a1 3d 89 d1 27 3c d2 43 4b 3d 19 be fd bc
       0.07902801 0.010242828 0.049625225 -0.030974435
000120 49 d1 ac bd e0 18 24 3d 63 35 2c 3d d6 c5 97 bd
       -0.084383555 0.040062785 0.0420431 -0.07410781
000130 e2 00 73 bd 9e 8f 2f bd 05 d9 5c 3d 97 43 a2 3d
       -0.059327014 -0.042861573 0.053917903 0.07923048
000140 e3 5e 52 3d 00 35 cf bd 28 f3 0a bb 2b ff 33 bd
       0.051360022 -0.10117531 -0.0021202061 -0.04394452
000150 c2 16 ca 3c f1 e2 5a 3d c3 64 cf bc 3d c6 b9 bc
       0.024669055 0.053439084 -0.025316602 -0.022677535
000160 ce 93 64 bd df 73 81 bd 09 0e c4 bd d8 31 85 3d
       -0.05580502 -0.06320929 -0.095729895 0.065036476
000170 99 c2 b8 bd b5 81 33 bc 25 fc 6f bd 7c 0f 98 bd
       -0.090214916 -0.010956218 -0.058590073 -0.074248284
000180 b6 dd a5 3d 21 2b c1 3c 8c a1 96 3c 86 db 96 bc
       0.08098929 0.023580136 0.018387578 -0.018415224
000190 7a aa aa 3c b7 e1 a0 bd e7 a0 f7 3b 43 78 68 3d
       0.020833243 -0.07855552 0.007557023 0.056755316
0001a0 11 62 59 bd 43 8a b0 bd 1f 5a a9 bd ad 0c a1 bc
       -0.05307204 -0.08620121 -0.08269142 -0.019659365
0001b0 e5 b5 97 3d 9a b1 d0 3a 9d 76 8a ba 0f 99 5a 3b
       0.074077405 0.001592207 -0.0010563914 0.003335539
0001c0 a0 fa 60 bd 7e 5d 5b bd f1 2a 9c 3d a1 d5 70 3d
       -0.054926515 -0.053555958 0.07625378 0.058797482
0001d0 93 cc b7 3c 27 58 31 3d 55 a8 ba bd 99 cc 20 3d
       0.022436416 0.04329696 -0.09114138 0.03925762
0001e0 1d a1 4d bd 9d 53 bf bc 7a 19 11 bd b7 d8 22 3d
       -0.050202478 -0.0233553 -0.035424687 0.039757457
0001f0 7b d1 6a bd 79 e2 92 3d f7 18 af bb 2f 24 9f 3d
       -0.057328682 0.071721025 -0.005343552 0.07770573
000200 27 57 88 bd 8a cb 03 3d 00 57 8f bc d4 f8 01 bc
       -0.06657248 0.03217653 -0.01749754 -0.00793286
000210 7f 22 b7 bd 65 bd 96 bd 8b 52 0b 3c 49 72 4b bd
       -0.089421265 -0.07360343 0.0085035665 -0.049669538
000220 d3 7b 8a bc 35 3f 94 3d fb de 97 3d 7b a7 a3 bd
       -0.016904747 0.07238618 0.07415577 -0.07990929
000230 83 eb 85 bc c4 51 6c 3d 42 8a 25 3b b0 d3 22 bd
       -0.016347652 0.057695165 0.002525941 -0.039752662
000240 f3 ce 81 bd bc de e0 3c aa 6c e0 3c 59 ce c1 bd
       -0.063383006 0.027449958 0.027395565 -0.09463186
000250 a3 9e 47 3b 30 6f 59 3d f7 c4 9f 3d 77 06 11 3c
       0.0030459545 0.053084552 0.0780124 0.008851639
000260 b1 fb 87 bd 30 04 92 bd bd b9 99 3d 9a 56 1b bd
       -0.06639803 -0.07129705 0.0750613 -0.037924387
000270 05 3a 48 3d 4a 17 a5 3d 67 cb 33 bd 33 e4 59 bb
       0.048883457 0.08061083 -0.04389515 -0.003324759
000280 97 5a 29 3d 22 9a 0b 3b f5 ec 7f 3d 53 87 40 3d
       0.04134616 0.0021301587 0.06248184 0.047004055
000290 94 86 65 3d 88 6a 92 bd 0c a3 74 3d 75 79 8d bd
       0.056036547 -0.071492255 0.059725806 -0.06907932
0002a0 85 35 a3 bd d1 79 b1 bd 03 8f a1 bd 19 31 6b 3d
       -0.079691924 -0.08665813 -0.078886054 0.05741987
0002b0 28 d5 0c bd 49 23 77 3d d2 b8 93 3d 2a 51 99 bd
       -0.03438297 0.060336385 0.07212986 -0.07486184
0002c0 82 ff 1d bd 93 e5 d0 bd 4d b2 84 bc 10 fc 6e 3d
       -0.03857375 -0.10200038 -0.016198302 0.058345854
0002d0 b3 db 56 bd b3 49 8a bd ec 83 4a 3d b1 62 2f 3d
       -0.052455615 -0.06752338 0.049442217 0.04281873
0002e0 32 ef bb bb 84 84 92 bd b1 25 89 bd a4 1c 95 bc
       -0.0057353014 -0.071541816 -0.06696642 -0.018202133
0002f0 50 4a 99 3d 0b 87 4f bd 11 84 2a 3c c7 d3 89 bd
       0.07484877 -0.050665896 0.010407464 -0.067298464
000300 b2 00 6d 3c 38 ac 7c bd d3 4a cd bd f9 04 d6 bd
       0.014465498 -0.061687678 -0.10024037 -0.10450167
000310 c5 f6 c7 3d 58 b2 2c bd 4d 48 4c bd f9 5d 29 3d
       0.097638644 -0.04216227 -0.04987364 0.041349385
000320 2e b8 d9 bd 84 0d b4 3d 3a 3d ca bc f4 89 ba bd
       -0.106308326 0.087916404 -0.024687398 -0.09108344
000330 53 f3 8b 3d a3 50 5e 3d 3e 7e 7f bd cb a7 61 3d
       0.0683352 0.05427612 -0.062376253 0.05509166
000340 0c 47 a8 bc c2 6e d7 bd ea 96 5e bd be e1 7e 3d
       -0.02054169 -0.10519172 -0.05434314 0.062227003
000350 d3 fd 98 bd 2a 81 da 3d 5c 50 50 3d 7e 03 41 bd
       -0.07470288 0.10669167 0.050857887 -0.04712247
000360 0d 63 70 3d 72 b8 77 3c d8 32 98 bd cd d7 cd 3d
       0.058688212 0.015119659 -0.07431573 0.10050926
000370 9e 06 53 bc 5d aa e0 bc 43 2e 87 bd 2c 7e 89 3d
       -0.012879996 -0.027424986 -0.066006206 0.067135185
000380 33 e2 6f 3c 41 46 5a bb 86 1f 0e bc cb 4b 0a bb
       0.014641332 -0.0033306035 -0.008674508 -0.0021102305
000390 12 0a 98 3d cc 6f cc bd 57 36 a6 3d 79 c4 5a 3d
       0.07423796 -0.09982261 0.08115833 0.053410027
0003a0 34 98 7f bd 80 9b 52 3d ac 22 6f 3c b3 42 86 3d
       -0.06240101 0.051417828 0.014595669 0.065556906
0003b0 6d bf e2 bc 80 06 d6 3c 28 c7 c2 3d 89 e0 d1 bb
       -0.02767917 0.026126146 0.09510642 -0.0064049405
0003c0 0c 6e bb bd 54 82 05 bc e9 de 95 bc 2f 3a 30 3d
       -0.09151849 -0.008148748 -0.018294768 0.04302424
0003d0 da 5b 2b 3d 9d 73 ac bd 16 1d a9 bc b2 70 92 bd
       0.041835643 -0.08420489 -0.020643752 -0.07150401
0003e0 ff fd ae 3d bd b7 ab 3d aa 4a 11 bd d2 82 a4 3d
       0.0854454 0.08384655 -0.035471596 0.080327645
0003f0 91 5f b9 bd a5 2b 63 bd 41 3c f0 3c cb 04 21 bc
       -0.09051431 -0.055461545 0.029325606 -0.009827803

layers.1.bias f4 [100]
000000 45 21 91 3d 8c 3e 46 bd 1f ee 80 3d d7 96 b0 bd
       0.07086424 -0.048399493 0.06295418 -0.086225204
000010 8e 7d 7f bd 48 7c 82 bd e9 89 7f 3b 1d 6f 81 bd
       -0.062375598 -0.06371361 0.0038992113 -0.06320021
000020 ad b6 47 bc 68 2b e1 3d f4 59 ff 3c f1 75 43 3c
       -0.012189549 0.10994607 0.031170823 0.011929975
000030 d1 9d 04 bd 04 49 ea 3c a2 cd 85 3d 2d b5 b9 bc
       -0.032377068 0.02859927 0.06533362 -0.0226694
000040 ad df 5b bd b0 49 3c bd 79 0c 91 bc 45 9e 8b bd
       -0.05368011 -0.04596871 -0.017706143 -0.06817297
000050 54 da b6 3c cd 4f 8f 3d f3 51 91 bc b1 94 30 3d
       0.022320904 0.06997643 -0.017739272 0.043110553
000060 f9 5b 6f 3d 84 5a ba bd f9 a2 1a 3d 67 94 e6 bd
       0.05843732 -0.09099296 0.03775308 -0.11258774
000070 56 dc 34 3d 17 58 63 bd fa 30 6d bd 08 49 3c bd
       0.04415544 -0.05550393 -0.057908036 -0.045968086
000080 bb 9e 4f bd 71 82 39 bd 4d 0b 23 3d 29 16 b1 bd
       -0.050688487 -0.045290414 0.0398057 -0.08646805
000090 04 d8 8b 3d f4 77 cc bc 3c 4b d2 3d 01 76 85 bd
       0.06828311 -0.024959542 0.10268256 -0.06516648
0000a0 fd df 64 3d 9c cb 9d bd de 27 bf bd 05 fe 35 3d
       0.055877674 -0.07704851 -0.09333776 0.044431705
0000b0 bf 8a 4e bd 2a 14 b7 bd 2d 29 8e bd 6a 07 6e bd
       -0.050425287 -0.08939393 -0.069414474 -0.05811254
0000c0 f6 e2 9f bc 47 92 e9 3c e8 47 83 3b 1e 68 a3 ba
       -0.019517403 0.028512133 0.0040063746 -0.0012466942
0000d0 c8 0d 26 bd 39 f1 60 bc c2 30 df bc 67 0c bd 3d
       -0.040540487 -0.013729387 -0.02724493 0.09230881
0000e0 9c a1 92 3d d3 fa c6 bd a9 55 52 bd a3 a6 e4 bd
       0.07159731 -0.0971581 -0.051351223 -0.11164596
0000f0 f8 a7 40 bd 8e 7c 62 bb cd 3d 64 bb 0d 37 88 3c
       -0.047035187 -0.0034559104 -0.0034826875 0.016627813
000100 90 bc 0c bd b0 4d c9 bb 8f c7 5c 3c e2 ed 6a 3d
       -0.034359515 -0.0061432943 0.013475313 0.05735577
000110 9e 96 87 3d 03 e0 96 3d d9 51 bf 3c e8 fa 3a bd
       0.06620525 0.073669456 0.023354458 -0.04564944
000120 fd 18 31 bc 88 27 96 3d 70 48 2a 3d 84 98 17 3c
       -0.01080918 0.07331759 0.041572988 0.009252671
000130 47 85 1b bd df 2e 94 3d b5 2a d2 bd 1e f8 1f 3d
       -0.0379689 0.072355025 -0.10262052 0.039054982
000140 87 82 9b 3d 45 a9 d1 bb 66 7b 25 3c 75 2e 4f 3d
       0.075932555 -0.0063983523 0.010100221 0.050581414
000150 69 5a c3 bd b9 c9 7e 3d 6c ee ac bd 4a 5e 88 bd
       -0.09538729 0.062204096 -0.08443913 -0.06658609
000160 ef ac 95 bd 9d 25 71 bd 2c f9 bd 3d 83 91 48 bd
       -0.07308375 -0.05887376 0.092760414 -0.048966896
000170 d3 b2 d9 3a b7 a5 17 3d 42 6e 9d 3d 6b 79 2c 3d
       0.001660908 0.037023272 0.07687046 0.04210798
000180 3f 53 be bd 45 45 11 3d c1 a5 e9 bb fa 68 6c bc
       -0.09293222 0.03546645 -0.007130355 -0.014429325

layers.2.weight f4 [1, 100]
000000 0e ad 03 bc 59 01 ad bc 18 85 8b 3d 59 df 00 3d
       -0.008036865 -0.021118807 0.06812495 0.031463
000010 2e d5 ed bc cb 17 bf 3c b4 09 34 3c fc cc 35 3d
       -0.029032316 0.023326775 0.0109886415 0.04438494
000020 88 2d d2 3c 76 d3 9f 3d ad d8 44 3d 59 87 7e 3d
       0.025656477 0.07804005 0.0480582 0.062140796
000030 85 b6 30 3d 7a c8 6a 3c fb fb 99 3d d4 92 6d 3d
       0.043142814 0.014330024 0.075187646 0.058001354
000040 d4 1a 20 3d b9 7d 96 bd b5 be b4 bd 9b 39 b7 3d
       0.039088085 -0.073481984 -0.08825437 0.08946534
000050 e0 d4 3b b9 76 44 b7 bd 78 90 44 bd 38 d5 07 bd
       -0.00017913012 -0.08948605 -0.04798934 -0.033162326
000060 ed 1a 24 bc 66 8c a2 bd dc 52 86 bc 53 20 3b bd
       -0.010016185 -0.07936935 -0.016396932 -0.045685124
000070 5b b4 ac 3c a6 c8 43 bd 60 6a 32 3a 65 75 76 bd
       0.021082094 -0.047798775 0.0006806012 -0.06017055
000080 7f 2b ce 3b a6 5e 86 3b 5f a6 74 3d 04 dd 9a bd
       0.006291806 0.0041006384 0.059728976 -0.07561687
000090 60 ae d6 bb 46 dc 95 3d 53 11 bc 3d d4 e7 8c bd
       -0.006551549 0.073174044 0.09182992 -0.06880155
0000a0 f2 9a 3e bd c6 02 59 3d 8a eb 59 bd bf a3 ae 3d
       -0.046534486 0.05298116 -0.053203143 0.08527326
0000b0 26 b1 01 bd 0f 0a 8d 3d 05 5d b3 bd 95 49 96 3d
       -0.031663083 0.06886684 -0.087579764 0.073382534
0000c0 37 9f 1c bd 5c fa b4 bd c2 6e 76 bd 47 ac f9 bb
       -0.038237777 -0.08836815 -0.06016422 -0.007619414
0000d0 e9 d3 36 bc 90 ab f8 bc e7 12 2e bd 65 97 86 3d
       -0.011158922 -0.030355245 -0.042498495 0.06571845
0000e0 d7 80 88 3b 58 12 40 3d b0 02 94 bd d5 d4 9b bd
       0.0041657495 0.046892494 -0.07227075 -0.07608954
0000f0 93 26 1f 3b 62 58 89 bd 8d 57 54 3d 2a c6 1f 3d
       0.0024284467 -0.06706311 0.051841307 0.039007343
000100 1e a2 4a 3d c0 e8 fb 39 58 43 d6 bc 65 a0 8e bd
       0.049471013 0.00048047863 -0.026155159 -0.069641866
000110 87 9c 2d 3b 21 76 b1 bd 7c 34 38 3d 2f c9 f3 bc
       0.0026491003 -0.086651094 0.044971928 -0.029759018
000120 04 90 81 bd 14 da bb 3b 7b 5f 69 bd 13 2c 89 bd
       -0.06326297 0.005732784 -0.056975823 -0.066978596
000130 8e 34 9c 3c 59 a3 e7 bc 2f 9b ac bd a5 79 63 bb
       0.019068029 -0.028276132 -0.084280364 -0.0034709957
000140 2e cc 0a 3d 5f 57 94 3d a9 2a 84 bc 7c 6e 8a bd
       0.033886127 0.07243227 -0.016133623 -0.067593545
000150 6c 33 dd bc 9c 2e e2 bc 20 ab a5 bd f5 45 b2 3d
       -0.027002059 -0.027610116 -0.0808928 0.087047495
000160 62 5e 93 3d d8 c3 8f bd f2 11 81 3d 2c 84 49 3d
       0.071957365 -0.07019776 0.06302251 0.049198315
000170 10 74 8a bd e2 f0 a9 bc 72 ac 93 bc 09 56 e1 3b
       -0.067604184 -0.020744745 -0.018026564 0.0068767113
000180 7a 66 ac bc 10 8d 0e bc 9b 90 35 37 77 a1 6f bd
       -0.021044958 -0.008700624 1.0822109e-05 -0.058503594
