experiments/results/A/models/modelA3.pkl (torch, 50628 bytes, 5 tensors)

layers.0.weight f4 [100, 18]
000000 c1 d7 1f bd f4 6e 12 bd 96 a9 7d be 35 37 26 3d
       -0.03902412 -0.035750344 -0.24771723 0.040579993
000010 e7 0e b8 bd fd c0 01 3e a3 65 2c 3e c6 e5 fd 3d
       -0.089872174 0.12671275 0.16835646 0.123973414
000020 c7 58 2f bd d4 bb 17 bd a7 ef fb bd 5c 1a 59 be
       -0.042809274 -0.03704436 -0.123015694 -0.21201462
000030 34 0d 25 3e 79 d6 30 be 8f 53 e3 3d c7 f0 f5 3d
       0.16118318 -0.17269315 0.11099922 0.12008815
000040 bb 2b 32 be d6 51 f9 bd 35 c7 26 bc c3 e5 17 be
       -0.17399494 -0.12173812 -0.010179331 -0.14833741
000050 aa e5 34 3e e4 c7 25 3e d7 44 10 3e 2f ae df 3c
       0.17665735 0.16189533 0.1408876 0.027304737
000060 5d b7 8d 3d 5e 9d 8f 3d f8 43 f5 bd 28 ff 19 3d
       0.069197394 0.07012437 -0.11975855 0.03759685
000070 8e d9 28 3b 7f 18 16 3d 4c 58 1a 3e ff 96 25 be
       0.0025764438 0.036644455 0.15072745 -0.16170882
000080 eb 2c 86 bc 33 45 39 be f9 cc 11 be 9a f4 31 3b
       -0.01637884 -0.18092804 -0.14238347 0.002715385
000090 41 13 2e 3e cd ef 24 be 45 9d 5e be de e5 be 3d
       0.16999532 -0.16107102 -0.21739681 0.093211874
0000a0 48 93 19 3e a9 fc 32 3e 01 d7 f0 3d a7 6d 44 3e
       0.1499759 0.17479195 0.11759759 0.19182454
0000b0 9a ea 49 3e eb 44 56 bc de 04 2a bd 70 24 12 be
       0.197184 -0.013077955 -0.041508548 -0.14271712
0000c0 48 07 4e 3e 8e 75 c7 3d ab dd ce bc 1b 86 19 be
       0.20119965 0.09739219 -0.025252184 -0.14992563
0000d0 00 4c c7 bc 83 86 ea bd 19 f4 9b bd be 73 79 3c
       -0.024328232 -0.11451437 -0.07614917 0.015225349
0000e0 1e 3e c6 bd 49 7e b7 3d 85 8c 3e be 12 86 b1 bc
       -0.09679817 0.08959634 -0.18608291 -0.021670375
0000f0 65 ab ff bd d0 52 32 be a0 cc 15 be bc 18 14 bb
       -0.12483863 -0.17414403 -0.1462884 -0.002259775
000100 b7 8a e1 bd 5a 88 1f 3e b9 7c ad 3d 64 da 6d be
       -0.11012786 0.15579358 0.084710546 -0.2322784
000110 4a 8a f6 b9 5f 57 2a bd 35 68 7a bc 20 75 d8 3d
       -0.0004702381 -0.04158723 -0.015283634 0.10569215
000120 b9 3c 35 3e 6e c6 ee bd f9 de 44 3e 2f c2 03 3e
       0.17698945 -0.11658941 0.19225682 0.12867044
000130 2b 0e c2 3c 3d f4 9f bd 25 52 60 be dd 17 11 3e
       0.023688396 -0.07810257 -0.21906336 0.1416926
000140 2b 1f 00 be b3 f7 58 be fb 52 bb 3d 95 ff 23 3c
       -0.1251189 -0.2118824 0.09146687 0.010009666
000150 19 50 04 be c7 90 3d be e7 85 7b 3d df b4 e4 3d
       -0.1292118 -0.1851226 0.061406996 0.11167311
000160 ba 39 0b be 5b 51 24 be be 45 4a 3d 29 bb 4f be
       -0.1359624 -0.1604666 0.049382918 -0.2028624
000170 a7 74 3e 3e e2 ac a6 3d 89 cb c5 3d 09 f4 87 3d
       0.18599187 0.081384435 0.09657962 0.06638343
000180 f1 2e 45 bd 56 77 40 be 30 1c f0 3d 55 9f f2 3d
       -0.04814047 -0.18795523 0.11724126 0.118467964
000190 54 d3 94 bd a4 2a 0a 3e 07 fa 31 3e 56 99 46 be
       -0.0726687 0.13492829 0.17380534 -0.1939443
0001a0 91 ae bb 3b e0 3e 4f bc 99 81 db 3d 82 01 70 be
       0.005727597 -0.012649268 0.10718078 -0.23438075
0001b0 2f f2 7d 3d 33 d4 4b 3a 8c 44 81 bc 0b ea 34 be
       0.061998542 0.00077754556 -0.015779756 -0.17667405
0001c0 07 33 3a be 1f 75 a7 3d 21 1f 37 3e 9a fc 34 be
       -0.18183528 0.08176636 0.17882968 -0.17674485
0001d0 b4 e7 85 bb fa 2a 72 3d e2 1c 49 3e 9f f4 f4 bd
       -0.004086459 0.059123017 0.19639924 -0.1196072
0001e0 08 a5 f1 3b ca f0 1a 3e aa ff 33 3c 47 5c ec 3d
       0.0073744096 0.15130916 0.010986248 0.11541038
0001f0 ff a6 52 3e 6a 87 6c be a5 a1 be bd 58 fe 6e 3d
       0.20571516 -0.23098531 -0.09308175 0.05834803
000200 ea 81 08 bd 93 e3 34 bd f5 8e 23 3e ce 39 14 be
       -0.03332702 -0.044162344 0.15972503 -0.14475176
000210 8b ed 04 be fa d7 1c 3e 05 a2 43 3e c2 82 14 3e
       -0.1298124 0.15316764 0.19104774 0.14503005
000220 aa 65 c9 bc 16 27 19 be 90 40 76 be a0 d3 71 bd
       -0.02458461 -0.14956316 -0.24048066 -0.059039712
000230 31 d2 9e 3d 5d 14 13 be dc 28 b7 bd 8d e3 be bd
       0.077549346 -0.14363237 -0.0894334 -0.093207456
000240 12 0e 9b bd 29 71 1f 3d ef f8 b5 3d 1f 8f dc 3c
       -0.07571043 0.038926277 0.08885371 0.026923714
000250 f3 4d 9d bd ac 2c 05 3c 4d 61 40 3e 44 82 2f 3e
       -0.07680883 0.008128326 0.18787117 0.17139536
000260 28 7d 12 be d1 42 18 be a9 71 1b be 8f 26 bd 3c
       -0.14305556 -0.14869238 -0.15180077 0.023089675
000270 d5 2e bb bd fa a7 4c 3e 41 14 4f bd 80 b3 e6 3d
       -0.09139792 0.19985953 -0.050556425 0.11264706
000280 5f 1e 27 3e 17 81 72 be 3c 68 0c bd 87 06 f1 bd
       0.1632018 -0.23682056 -0.034279093 -0.11768823
000290 a1 28 bc 3d 6d a9 a7 3c 7c 28 67 be 8f c0 a6 3d
       0.09187437 0.02046653 -0.22574037 0.081421964
0002a0 01 ec 44 bd 2e a9 58 3e 0c 35 1c be 73 86 ba bc
       -0.048076633 0.21158287 -0.15254611 -0.022769189
0002b0 e4 f0 35 3d f7 69 21 3e 99 44 1e be 8c a5 1b 3e
       0.044419184 0.15763079 -0.15455855 0.1519987
0002c0 3e cc 28 3e 5c 71 90 bc 25 a0 67 be 7c fa 7a bd
       0.16484162 -0.017632179 -0.22619684 -0.061274037
0002d0 36 8d 68 bd 03 5a 15 be 27 5f a4 bd b4 bf 2a 3e
       -0.056775294 -0.14585118 -0.08025961 0.16674691
0002e0 85 91 ec 3d 99 7c 22 be 07 64 1c 3e 87 fc b6 bd
       0.11551193 -0.15867843 0.15272532 -0.089348845
0002f0 56 20 50 be 91 a3 21 3e 64 c3 72 3d d0 ee 38 3e
       -0.20324835 0.15785052 0.05926837 0.1805985
000300 1c dc 15 be 38 28 69 3e fb a1 74 be a4 48 0c 3d
       -0.14634746 0.22769248 -0.23889916 0.034248963
000310 84 9f 85 3d 01 3d 26 3d 58 83 22 3e b3 77 b8 3d
       0.06524566 0.04058552 0.15870416 0.09007206
000320 da a2 50 be 65 38 4c 3e c9 27 59 be 65 ff 52 3d
       -0.20374623 0.19943388 -0.21206583 0.051513094
000330 10 ae 57 be fe 12 1b be be cf 1e be 93 61 38 3e
       -0.21062493 -0.15143964 -0.15508935 0.18005972
000340 b8 e7 11 3e dc 82 89 bd 69 0a 16 3e a0 c7 4a be
       0.1424855 -0.067144126 0.14652409 -0.19802713
000350 69 eb ea bc 73 f2 1d be 1a 37 c0 3c 75 cb 91 bd
       -0.028676705 -0.15424518 0.023463774 -0.071188845
000360 00 2b 1a be af 26 13 3d ab 6d e4 3d 0c 39 ea 3d
       -0.15055466 0.035925563 0.1115373 0.11436662
000370 f7 ef f8 bd 25 19 0d be 55 93 fe 3d 28 9d 91 bd
       -0.12155145 -0.13779123 0.12430445 -0.07110053
000380 64 e1 00 3d 20 72 ea bc 56 d1 26 3e a9 b5 8c be
       0.03146495 -0.028618872 0.16290793 -0.27482346
000390 7b 12 03 3e 22 b8 e7 bd 57 97 43 bd a5 91 04 be
       0.12800018 -0.113144174 -0.04775175 -0.12946184
0003a0 00 e4 61 3d fd b7 40 3d a5 70 0f 3c e9 bf 85 3d
       0.05514908 0.047050465 0.008754884 0.065307446
0003b0 34 9c 09 be 94 d6 9c 3d 1b 34 45 be 08 99 58 bd
       -0.13438493 0.07658115 -0.19258158 -0.052880317
0003c0 d9 68 d7 bd 62 8d e3 bd bc 6d 3b bd 91 f6 7f bd
       -0.10518045 -0.11110951 -0.045758948 -0.062491003
0003d0 4e e7 0c 3e 0e 33 ad bc 55 cd 51 3d aa fe 95 3d
       0.1376011 -0.021142509 0.05122121 0.07323964
0003e0 e0 e8 15 be ca f8 e1 bb 5a ea 42 3b 54 e2 4a be
       -0.14639616 -0.006896113 0.0029741735 -0.198129
0003f0 26 56 bd 3d a8 4d 45 3c 31 ab e0 3d 6f e1 af 3d
       0.09244947 0.0120424405 0.10970152 0.0858792

layers.0.bias f4 [100]
000000 aa c4 55 3e 16 74 2b be f6 06 2c be bc 1b f8 3d
       0.20875803 -0.16743502 -0.1679953 0.12114665
000010 67 3d 0d 3c 24 e7 d0 bd db 6e 4d 3e 26 0d b7 bd
       0.0086205965 -0.102003366 0.2006182 -0.08938055
000020 23 c8 f3 3c ab 46 67 3e fa a5 d8 3d 40 66 bc 3d
       0.029758519 0.22585551 0.105785325 0.0919919
000030 06 96 41 3e ae a9 f2 bd 77 07 b2 bd 12 6a 35 3e
       0.18904886 -0.1184877 -0.0869283 0.17716244
000040 d0 16 3e be 8e 06 0c 3e cb 99 05 3e 9d 86 75 bd
       -0.1856339 0.13674375 0.13046949 -0.05994283
000050 10 3d 42 be d0 4b da bd 6d 95 44 be b5 b8 2d 3e
       -0.18968606 -0.10658991 -0.19197626 0.16964991
000060 fb 92 bd 3c 1c 48 62 3d 4e ce 15 be be 6e 2b 3e
       0.023141375 0.05524455 -0.1462948 0.16741464
000070 ce 69 64 bd 5c 1c 5b 3e 21 b5 70 3e 7b 50 1e 3e
       -0.055764966 0.21397537 0.23506595 0.15460388
000080 26 48 0d be f0 49 ee 3c cb ac 2e bb f5 d9 b3 bd
       -0.13797054 0.02908799 -0.0026653286 -0.087818064
000090 cb b5 1a bd a0 63 22 3e a5 bf 7d 3d 64 d3 95 bd
       -0.037771028 0.15858316 0.061950345 -0.0731571
0000a0 5c c4 51 3e 64 7e 26 be 34 fd 1c 3b 84 88 78 3d
       0.20485061 -0.16259152 0.0023954632 0.060677066
0000b0 a1 e1 78 3d 88 a8 ad bd c8 a4 0c bd 46 f2 80 3c
       0.06076205 -0.084794104 -0.034336835 0.015740525
0000c0 e0 83 0e 3e aa 90 e5 3d ec 5e 91 3d ca ea e4 bd
       0.13917494 0.11209233 0.07098183 -0.11177595
0000d0 b6 bf 56 3e 2e 89 69 3e ad d1 71 be 76 46 59 be
       0.2097157 0.22806236 -0.23615141 -0.21218285
0000e0 12 04 32 be 36 cc f0 bc 92 b9 1d be 34 48 32 be
       -0.17384365 -0.02939425 -0.1540282 -0.17410356
0000f0 3e f9 d7 bd 4e 3c aa bc 71 9b 4f be 77 de 3a be
       -0.10545586 -0.020780709 -0.2027414 -0.18248926
000100 45 74 51 be ac c6 00 be 9f af a8 3d 6f 53 f3 3d
       -0.2045451 -0.12575787 0.08236622 0.11881148
000110 c3 50 0c 3e a5 7e 50 be 79 fd 46 be 31 6c 81 be
       0.13702683 -0.20360811 -0.1943263 -0.25277856
000120 db 9d 29 3d fe 6a e0 bd c4 c9 be bd 2e 26 b6 bd
       0.04141031 -0.10957907 -0.093158275 -0.08894001
000130 7a 4f 65 bd 7c f0 42 be bb ea ef bd c8 2d 00 be
       -0.055983998 -0.1903705 -0.11714693 -0.12517464
000140 33 ac 40 3d 08 3c 5e bd 1a 20 25 3e d0 9a a7 bc
       0.047039222 -0.05425647 0.16125527 -0.020459563
000150 60 69 b2 3d 66 29 d4 bd 75 2c a0 3d c0 39 b2 3d
       0.08711505 -0.103594586 0.078209795 0.08702421
000160 8e 9d 3a be 98 c0 e8 3d 22 e9 56 3e b2 21 08 3e
       -0.18224165 0.11364859 0.2098737 0.13294104
000170 85 91 6e be 17 97 73 3e a0 a7 32 be d3 1c bb bc
       -0.23297699 0.23788105 -0.17446756 -0.022840893
000180 11 8d fc 3c 05 42 42 be da 1e c4 3d 39 df 8c bd
       0.030828984 -0.18970497 0.09576197 -0.06878514

layers.1.weight f4 [100, 100]
000000 a9 f4 4b 3d 47 fd df 3b 84 31 42 3d 24 b0 8e 3d
       0.049793873 0.006835613 0.047410503 0.0696719
000010 8a d4 84 3d 25 b6 87 3d df 76 ba 3d 43 8a e5 3d
       0.06485851 0.06626538 0.09104704 0.11208012
000020 36 02 1c bd ab 41 3b bc dd 4a 96 bd 82 53 6a 3d
       -0.038088046 -0.011429231 -0.07338498 0.057208546
000030 00 ef ce bd 22 f6 1b bd d4 a9 39 bd 30 7b 76 bd
       -0.101041794 -0.038076527 -0.045327976 -0.060176075
000040 a9 ad 70 bd 66 ab 23 bd df 29 ab 3d 98 dd 93 3d
       -0.058759365 -0.03995838 0.08357596 0.0722
000050 75 98 c2 3d c3 60 93 bd 04 a6 2a 3d 04 68 16 bd
       0.09501735 -0.0719619 0.04166223 -0.03672029
000060 c4 2d 96 3d b1 22 20 3d ad a3 f3 3c 82 b7 97 3d
       0.07332948 0.039095584 0.029741133 0.07408048
000070 b8 47 da bd bc 40 a9 bd 58 5a b8 bd b5 b0 23 bd
       -0.106582105 -0.082643 -0.09001607 -0.039963443
000080 0a e7 0e bd 3e 6c 85 bd ce 01 86 bd d9 5c 87 bd
       -0.034888305 -0.06514786 -0.06543313 -0.06609506
000090 b4 73 a3 bd e3 64 3f bd f9 e4 4e 3c bc c9 1c b9
       -0.07981053 -0.046727072 0.0126278335 -0.00014952471
0000a0 c7 b1 29 bd 46 0d 0e bc 25 07 84 bd 0c bd a7 3d
       -0.041429307 -0.008670157 -0.06446675 0.08190355
0000b0 ec cd 7e bd 46 c3 c0 bb da 56 97 bd 0a 2a 09 bd
       -0.0622081 -0.0058826534 -0.073896125 -0.033487357
0000c0 70 a0 a8 bd 3c a7 0f 3e 0b ca 20 bd 39 42 0b 3c
       -0.08233726 0.14028639 -0.039255183 0.008499675
0000d0 0e f1 b6 3d a1 c0 d2 bd 6d f6 87 bd 99 a6 7d bd
       0.08932696 -0.10290647 -0.06638799 -0.061926458
0000e0 85 ee da 3d 09 77 96 bd 85 48 3b 3d 03 e3 67 bc
       0.10690025 -0.07346923 0.045723457 -0.014153245
0000f0 73 aa 05 bd f7 f8 49 bd 27 c1 d9 3d 86 26 33 bd
       -0.032633256 -0.049309697 0.10632544 -0.04373791
000100 c0 bc 6f bd c6 20 2d 3d 07 6f 7b bb 93 92 c8 bc
       -0.058529615 0.042267583 -0.0038365738 -0.024483955
000110 aa ed cb 3c 4a 04 ad bd 1b c6 a8 3d a8 d5 c6 bc
       0.0248936 -0.08448084 0.082409106 -0.024271801
000120 34 b6 b6 3d a7 04 c3 bd 1a b6 ff bc dd 5a 9c bc
       0.08921471 -0.09522372 -0.031214762 -0.019086296
000130 0b 16 3a bd 55 d1 ad 3d 17 31 e6 3d 2a a9 31 3d
       -0.045431178 0.084871925 0.11239832 0.043374218
000140 7f f5 2f 3d e0 38 13 bd a9 b4 3f 3c 13 8a b2 3d
       0.042958733 -0.035942912 0.011700788 0.08717742
000150 81 1f b7 bd 99 6d bc 3d e3 5e 70 3d 34 ac c1 bd
       -0.08941556 0.092005916 0.05868424 -0.09456673
000160 ef 0e 89 bc 38 99 9a 3d 7c e9 aa 3d 36 49 20 3c
       -0.016730754 0.075487554 0.08345315 0.00978308
000170 c1 d6 a5 3d ca ab 9f bd fd 9f ea bd c7 9a 13 3d
       0.08097602 -0.07796438 -0.114562966 0.03603628
000180 01 3e 37 3d 8d dd 4d 3d 1d 64 9e 3d 29 a3 95 bd
       0.044736866 0.050260115 0.07733939 -0.07306511
000190 93 f1 43 bd 76 b1 8a bd 16 dc 97 3d a2 16 c8 3d
       -0.047837805 -0.06772129 0.07415025 0.09769942
0001a0 12 82 20 be 6b 9b 64 bc 88 a2 d2 3c 2f c9 7b bb
       -0.15674618 -0.01395307 0.025712267 -0.0038419475
0001b0 28 30 7e 3c bb 00 c8 3c 12 9a 4d 3d 9f e1 3f 3d
       0.015514411 0.02441441 0.05019576 0.04684603
0001c0 22 31 38 bd 6e 3b 14 bc ac 63 b7 3c 9f b6 31 3d
       -0.04496873 -0.009047372 0.022386394 0.04338705
0001d0 d3 61 04 bd 9d ff 3d bd 79 4e c3 3c c3 14 1a 3d
       -0.032319855 -0.04638635 0.02384113 0.037617456
0001e0 30 04 5b 3d 02 ed 94 3d 60 21 04 3d 25 48 88 bd
       0.05347079 0.07271768 0.03225839 -0.066543855
0001f0 02 9c 0c bd cc ab f1 bb 43 27 8c ba f6 71 a9 3d
       -0.03432847 -0.007375216 -0.0010692853 0.082736894
000200 3d d5 0c 3b c1 bc 7d bc f1 21 16 bc b4 f9 b9 bc
       0.0021489405 -0.015486897 -0.009163366 -0.022702076
000210 15 8d b6 bd 21 40 95 bc d7 27 54 3d 31 88 2f 3d
       -0.08913628 -0.018219056 0.051795807 0.04285449
000220 82 18 0d 3d 78 6e eb 3d 30 55 99 bd b5 1d 89 bd
       0.0344472 0.114956796 -0.07486951 -0.06695119
000230 c7 51 88 3d d0 35 8a 3d b4 60 14 3d a1 a1 5c 3c
       0.06656223 0.06748545 0.036225036 0.01346627
000240 13 76 a5 3c 99 ff 13 3d db 5a 74 3c df 70 6e bd
       0.020197904 0.03613243 0.01491424 -0.05821311
000250 0f 8a 43 3d 2b 45 2c bd f4 80 01 3d 1b 00 f5 3c
       0.047739085 -0.04205815 0.03161712 0.029907277
000260 3a 1d 1c bd 92 00 cb 3d 57 a5 97 bd aa d3 d1 3c
       -0.03811381 0.09912218 -0.07404583 0.025613625
000270 61 15 ed bd 61 48 90 3d 0b 8b 93 3d 56 76 df bd
       -0.11576343 0.07045055 0.07204255 -0.10911243
000280 c5 db 04 3c a1 8d 50 bd 80 52 7e 3d d5 48 58 3c
       0.008109038 -0.050916318 0.062090397 0.013200958
000290 36 7a 75 38 23 50 e9 3b 67 67 c7 bb ed 96 00 bb
       5.852637e-05 0.0071201487 -0.0060853246 -0.0019621209
0002a0 aa ed 0f 3a 87 90 34 bd c0 c3 6c bc 24 6e 96 3b
       0.0005490432 -0.044083145 -0.014450967 0.0045907665
0002b0 f5 e6 92 bc fe eb 8a 3d 0a 46 15 bd 7e c9 a2 bd
       -0.017932395 0.06783293 -0.036443748 -0.07948588
0002c0 c6 a0 b9 bc 0b 4a b8 bc 0b 4d cc bd b7 c4 ce bc
       -0.02265967 -0.022496244 -0.09975632 -0.025240285
0002d0 69 0f eb 3c a8 32 09 bd 57 aa 9e bd 2d f6 aa 3d
       0.028693872 -0.033495575 -0.077473335 0.083477356
0002e0 22 49 01 3c 4e 15 26 3d 95 08 6a 3b dc d2 38 bd
       0.007890971 0.04054766 0.0035710682 -0.045122966
0002f0 ce e6 7b bd 0b 9c 1f 3d 9d fa 99 bd 2d b1 c7 3c
       -0.06149941 0.038967174 -0.07518504 0.024376476
000300 ee fc 72 3c 9f 87 b8 bd 18 dd 32 bd c7 52 b4 3b
       0.014830811 -0.09010243 -0.043667883 0.005503032
000310 d4 2d 96 3b 7f d7 1e 3c 76 1e 08 3d 7b 66 c8 3c
       0.0045831 0.009694933 0.033232175 0.024462929
000320 0d 0c 30 bd 80 7f 89 bd d4 7a 9a 3d 71 aa 3e 3b
       -0.042980243 -0.06713772 0.07542959 0.002909329
000330 e5 40 a2 3a 07 5f 81 39 f3 b0 62 3c 78 07 31 bd
       0.0012378959 0.00024675598 0.013836133 -0.043220013
000340 5b 1d ac bb 7b 5c bf bd 1e 89 93 3d db af 12 3d
       -0.005252523 -0.09343811 0.072038874 0.03581224
000350 31 23 9c bc 21 00 0a 3c 8b 84 08 bd 68 7e 25 3d
       -0.01905975 0.008422882 -0.033329528 0.040403754
000360 b0 03 92 bc 81 6e 85 3d 89 40 5a 3d 3e dd c3 bd
       -0.017824024 0.065152176 0.0532842 -0.09563683
000370 5f 76 a4 3c 80 cf ea 3c 44 7c 99 3d 99 dc a9 3b
       0.020075975 0.028663397 0.07494405 0.005183768
000380 ef 25 91 bd 16 bd 62 3c 76 a1 c5 3c f0 93 bf bd
       -0.070873134 0.013839027 0.024124842 -0.09354389
000390 bc 7d 00 3c 2a 3f 9e bd 3a 31 23 3d c1 d7 80 b8
       0.007842477 -0.07726891 0.039841868 -6.143703e-05
0003a0 5c 83 93 bd 73 33 b9 bd 23 f0 40 3d 4d 40 20 bd
       -0.07202789 -0.09043016 0.047104012 -0.039123822
0003b0 68 9d c6 3d c8 52 ee bc 13 3b 54 3d 49 5b 0e 3d
       0.096979916 -0.029092208 0.05181415 0.034755025
0003c0 be fe cd 3c ee 2e 0a 3d 44 3b a2 bd 82 5e 8a bd
       0.025145885 0.033736162 -0.0792146 -0.06756307
0003d0 d0 30 bb bd 9a db a8 bd 90 5a aa 3d 4d a3 7c 3d
       -0.091401696 -0.08245011 0.08318055 0.061679173
0003e0 eb 03 9b bd 10 12 3e bd f0 a5 3b bd c0 38 3e 3d
       -0.07569107 -0.046403944 -0.045812547 0.04644084
0003f0 d8 67 c5 bd 30 8f a4 bd ec f5 c1 bd 14 e1 20 3c
       -0.09638947 -0.08035123 -0.09470734 0.009819288

layers.1.bias f4 [100]
000000 94 af fa bc ed 98 22 bd fa 8d 95 bd 7c 96 4c 3d
       -0.0306013 -0.039696623 -0.073024705 0.0499482
000010 1c 87 3e 3d ad 08 00 bc ff 1d c4 bd 8c f0 03 bd
       0.04651557 -0.0078145685 -0.09576034 -0.032211825
000020 b5 2b 7b 3d ab 4d 0c 3b b1 69 87 bd 02 c3 ff bc
       0.06132098 0.0021408598 -0.06611956 -0.031220917
000030 ed 12 c7 bd 08 c1 77 bd ce 0a 0d bd be 4f 00 3d
       -0.09720407 -0.060486823 -0.034434132 0.031326048
000040 07 68 6e bc 7d dc 93 bd c2 1f a1 bd fa 89 a6 3c
       -0.014551169 -0.07219789 -0.078673854 0.020329464
000050 a0 c9 90 3c 87 0b 58 3d 51 6b 58 3d f5 a4 81 3c
       0.017674267 0.05274537 0.05283672 0.015825728
000060 ff 2b 14 bd 09 01 04 bb 64 98 80 bc 07 51 91 3d
       -0.03617477 -0.0020142219 -0.015697666 0.07095533
000070 56 15 bf bd 2f 5c 4b 3d e5 5c 81 3d 9b b4 30 bd
       -0.093302414 0.04964846 0.06316546 -0.04314099
000080 77 b6 36 3d fd 8b 73 bd ea a3 9f bd 41 50 51 3d
       0.044607606 -0.059459675 -0.07794936 0.051101927
000090 20 09 81 3d 7c 48 2b 3d 69 65 a7 bb 53 af 42 bc
       0.063005686 0.041817173 -0.0051085246 -0.011882621
0000a0 56 7a 95 bd c5 10 7d bc 21 18 78 3c c2 90 4d 3d
       -0.07298724 -0.015445893 0.0151424715 0.05018688
0000b0 04 c4 1b 3d 9e 59 c0 bc e0 19 cd bc c3 0c e8 bd
       0.038028732 -0.023480233 -0.025036752 -0.11330559
0000c0 f5 da e8 bb 3b 57 70 3d a1 5f 5e bc e0 83 8d 3d
       -0.00710618 0.05867694 -0.013572604 0.06909919
0000d0 bc 77 b5 3b 0f 27 9b 3c 87 f7 30 3d 4d b4 3e 3d
       0.005537955 0.018939523 0.04320481 0.046558667
0000e0 77 b0 e8 3a 1b 30 8b 3d 4c 41 98 3d bd 42 99 bd
       0.0017752786 0.06796285 0.074343294 -0.074834324
0000f0 7c 0a 48 3c 6b 24 c3 3d 75 25 c9 bd b3 94 84 3d
       0.012209531 0.095284306 -0.098215975 0.064736746
000100 9c 3b 56 bb 69 c1 49 3d 64 9e 2d bd 82 d3 c6 bd
       -0.0032689339 0.049256716 -0.04238738 -0.09708311
000110 ce 46 87 bd 7d e1 5e bd da ae 65 3d cb 7a b2 3d
       -0.06605302 -0.05441426 0.056074955 0.08714827
000120 cb 23 d5 bc 38 ff 9e bd b6 70 dc bd 9f 31 8e bd
       -0.026018044 -0.07763523 -0.107636854 -0.06943058
000130 69 f8 36 3d 31 0e b5 3c f2 a4 72 3d 28 51 87 bd
       0.044670496 0.022101494 0.059239335 -0.06607276
000140 4b 03 fe bd d0 48 d2 3c 19 be 31 bd f4 20 ad bd
       -0.12402972 0.025669485 -0.043394182 -0.08453551
000150 0f 1a 25 3d 9d d0 4b bc ef 13 33 bd af e0 50 3d
       0.040308055 -0.012439874 -0.043720182 0.050995525
000160 dd d6 bd 3d 3a c6 b1 bd e6 d8 b0 3d 8f ca 0f bd
       0.092694975 -0.08680387 0.0863512 -0.035105284
000170 8f b3 50 bd 09 50 ce bd f3 41 a1 bd 86 6f 91 bd
       -0.05095249 -0.10073859 -0.07873907 -0.071013495
000180 a3 2a 9c 3d f7 b1 c6 3d d5 7f 73 3d 55 0f 62 bd
       0.0762532 0.09701913 0.059448082 -0.055190403

layers.2.weight f4 [1, 100]
000000 82 a2 34 bd 0a 4a 83 3d b1 05 1a bd 50 82 5c 3d
       -0.044100292 0.06410606 -0.037603084 0.053835213
000010 5e 94 6c 3d a6 6e 04 3d 3d b0 66 bd d2 b4 3b 3c
       0.05775868 0.032332085 -0.056320418 0.011456685
000020 9b 44 20 bd fc 8d b1 3d 54 97 16 3d a4 e1 f8 3c
       -0.039127927 0.086696595 0.03676541 0.030381031
000030 56 60 92 3b bd 32 39 bd 98 19 91 3d 74 ab f6 bc
       0.0044670505 -0.045214403 0.0708496 -0.030111052
000040 1f d7 e8 b9 af 53 96 3d e9 3e e1 3c 5f 0e c8 bc
       -0.00044410766 0.0734018 0.027495818 -0.024420915
000050 eb 13 a6 3d 89 a5 6d bd 69 bd 37 bc a6 b8 a0 bd
       0.08109268 -0.058019195 -0.0112145925 -0.07847719
000060 d3 f7 89 3d a3 98 5e 3d 28 6b 9c 3d 47 b3 6e bd
       0.06736722 0.054344784 0.07637626 -0.05827644
000070 e3 df 2b 3d 3d 69 6d 3d 26 d7 2a bd a7 9e af bd
       0.041961562 0.05796169 -0.041709088 -0.085751824
000080 27 27 02 bd 2b 09 aa 3d 64 01 d5 38 08 f4 7d bd
       -0.03177562 0.0830253 0.000101568905 -0.062000304
000090 f0 13 3c bc 53 51 76 3d fb 35 5e bd c3 1e a5 bd
       -0.011479363 0.06013615 -0.0542507 -0.08062508
0000a0 35 7b 71 3d cb 29 b0 3d a9 24 06 bb f7 3d 82 bd
       0.05895539 0.086017214 -0.0020468628 -0.06359475
0000b0 90 81 35 3d 57 c4 5f bd 00 b7 8e 3d 1d 72 ba bb
       0.044313014 -0.054630604 0.06968498 -0.005689873
0000c0 94 19 ff bc 00 3f 78 bd be 82 5c bd 9d 05 5a 3d
       -0.031140126 -0.060606956 -0.053835623 0.05322801
0000d0 ee 02 ca bc 5d 7c 6f bc 03 51 c7 bc 33 42 b0 3a
       -0.0246596 -0.014617053 -0.024330622 0.0013447463
0000e0 2d 03 90 bc 41 3d 90 3b 72 3f b7 3d e6 a8 46 3d
       -0.01757964 0.0044018333 0.08947648 0.048500918
0000f0 d5 e6 7c 3d 14 6c 52 3d ed dc 41 bd 60 89 60 3d
       0.061743576 0.051372603 -0.047329832 0.05481851
000100 b4 78 77 3d fb ac 47 bd 83 46 48 3d 35 9e 44 ba
       0.060417846 -0.04874895 0.04889537 -0.00075003813
000110 91 34 1b bd 28 67 59 bd b6 66 13 3b 71 bc 2f 3c
       -0.037891928 -0.053076893 0.002249164 0.01072608
000120 21 9a 9c 3d a7 05 9f bd 70 13 b6 3c 0d 90 0d 3d
       0.07646585 -0.0776475 0.022226065 0.034561206
000130 54 40 37 bd b3 87 70 3c f5 01 a2 3c 2b 03 27 b9
       -0.044739082 0.014680791 0.019776324 -0.00015927541
000140 56 aa 8f bd b4 be 89 bc b1 a5 d0 bc 24 a0 b0 bd
       -0.07014911 -0.016814567 -0.025469633 -0.086242944
000150 33 9a c0 3a 35 57 cb bc 71 0f 2b 3d 04 b4 a9 3d
       0.0014694392 -0.024821857 0.041762773 0.082862884
000160 25 d6 37 3c 85 ec b8 3d 91 58 e5 3a 7d ce 53 bd
       0.01122049 0.090294875 0.0017497708 -0.051710594
000170 d0 6d 12 3d 22 97 04 3c 44 92 af bd a8 a4 b9 3d
       0.035749257 0.0080926735 -0.0857282 0.09064609
000180 ff 53 7a bd 0c db 9c 3d 87 b4 f5 bc 08 f1 40 3d
       -0.06111526 0.076589674 -0.029993309 0.047104865
