experiments/results/A/models/modelA2.pkl (torch, 50627 bytes, 5 tensors)

layers.0.weight f4 [100, 18]
0.026963117 -0.028880209 -0.16076949 0.10014976 -0.14851806 -0.23845148 0.04669992 0.10861571
-0.14528391 -0.067630365 0.026899382 -0.2150091 -0.20062564 -0.0665452 0.2206506 0.18284208
0.12152144 -0.054601252 0.13974829 -0.18180045 -0.22316009 -0.19986773 0.11296026 0.22764148
-0.039994944 -0.027595 -0.03137956 -0.1083233 -0.24309738 0.09500449 -0.033559803 -0.06935396
-0.06390519 0.14009026 -0.055272724 -0.12877361 -0.20792142 0.0057896785 0.13345957 0.12591025
0.22046563 -0.09446375 -0.20152883 -0.12994267 -0.124787435 -0.1854032 -0.122967705 0.041097324
0.1479562 0.06744871 0.019424798 -0.20815428 0.030836508 0.09616513 0.0103343725 -0.14002956
-0.006607735 0.008760437 -0.040911756 0.12501621 -0.14181721 0.15447634 -0.0963253 0.053982854
-0.110684395 0.116748534 -0.19089267 -0.0035268709 -0.12407785 0.06936778 -0.18614468 0.22314471
-0.19792347 -0.07464293 0.03020756 0.24127539 0.046782695 0.09823322 -0.18352565 0.1469288
0.22322698 -0.12448071 -0.0051196576 0.015098123 0.16554125 0.071216784 0.09536725 0.17326534
0.1746911 0.12974769 -0.12890236 -0.19025525 0.055015072 -0.018986212 0.04234599 0.14670819
-0.09460741 -0.09146578 -0.10458295 -0.07317123 0.12015361 -0.057262 0.017519316 -0.17617883
-0.0634149 -0.038712777 -0.25047344 -0.23371091 -0.1394175 0.12382495 -0.23593931 0.16697106
-0.19656624 -0.10172189 -0.17083463 -0.10333545 0.13125595 0.20235306 -0.024248086 -0.19824909
0.079206966 0.17251153 0.047836784 -0.20068343 0.11863026 -0.06892314 0.03851958 -0.17162946
-0.22238839 0.2072274 -0.113085404 -0.014247794 -0.22845468 -0.046556823 -0.053578332 -0.13427114
-0.1177223 -0.12904702 0.17094755 -0.16366372 0.02663431 -0.13039696 0.12631127 0.13494647
-0.0023613975 0.17804086 0.18491064 -0.09324245 0.05614129 -0.005015209 0.075376436 -0.00026353842
-0.035017055 -0.14565359 -0.102593385 -0.009580264 -0.25134766 -0.16915266 -0.09442369 -0.03456628
0.16606502 0.07018369 0.10805963 -0.23057836 -0.19178823 -0.0028566767 -0.004798911 0.15116186
0.19767764 0.029965468 -0.16569483 0.22109759 -0.018984616 -0.17940891 -0.21668303 -0.18645634
-0.19158003 0.14026064 -0.027827907 -0.118477 0.041600972 -0.016124826 -0.24515514 0.18601252
-0.20364474 -0.047429223 -0.016847096 0.15508427 0.21544027 -0.16063866 0.11025352 0.05332717
-0.22874892 0.0004174438 0.064361975 -0.015839672 0.14578566 -0.18171725 0.17088524 0.0003131067
0.09507349 0.16350907 0.19101085 0.14490981 0.0744067 0.15117994 -0.024430782 0.17145611
0.051684905 0.11739618 0.06643472 0.021694431 0.11216603 -0.13140585 0.005986051 -0.017267603
-0.16213152 0.057055276 0.025047008 -0.0023642436 -0.12624043 -0.21513186 0.015697867 0.025795639
-0.08761818 -0.0741128 0.20865552 -0.08872699 0.078374445 -0.11083981 0.21093833 -0.19063227
-0.22894704 0.11966025 -0.1641626 -0.026065705 -0.17370799 -0.08229676 0.064609185 -0.15402514
0.14274889 -0.019602735 0.04743361 -0.089124896 -0.09417813 -0.034849323 0.10449055 0.15555173
0.1603025 -0.15730509 0.031002283 0.12704913 0.18261386 0.19569212 0.115139075 -0.0240561
00000000: c1e1 dc3c 3096 ecbc c2a0 24be 511b cd3d
00000010: 1e15 18be a02c 74be 6a48 3f3d ea71 de3d
00000020: 4ec5 14be ca81 8abd 185c dc3c 582b 5cbe
00000030: cf70 4dbe da48 88bd 3bf2 613e f43a 3b3e
00000040: 3ce0 f83d 90a5 5fbd 2d1a 0f3e e629 3abe
00000050: 1484 64be 20aa 4cbe b557 e73d d91a 693e
00000060: bdd1 23bd e90e e2bc da87 00bd 9bd8 ddbd
00000070: 85ee 78be b791 c23d 0176 09bd 7309 8ebd
00000080: b9e0 82bd d273 0f3e a765 62bd 3bdd 03be
00000090: 5ae9 54be 58b7 bd3b a0a9 083e 9eee 003e
000000a0: bec1 613e 3676 c1bd 935d 4ebe b10f 05be
000000b0: 8e90 ffbd 56da 3dbe 7ed6 fbbd ab55 283d
000000c0: d581 173e 8d22 8a3d c120 9f3c 6526 55be
000000d0: d89c fc3c 39f2 c43d 8051 293c e963 0fbe
000000e0: b385 d8bb f087 0f3c 1693 27bd 4004 003e
000000f0: 8838 11be 0c2f 1e3e 3346 c5bd 201d 5d3d
00000100: 80ae e2bd db19 ef3d 5e79 43be 1323 67bb
00000110: 871c febd b210 8e3d b69c 3ebe 0c80 643e
00000120: 73ac 4abe 64de 98bd d875 f73c e510 773e
00000130: 369f 3f3d 802e c93d 26ee 3bbe 8174 163e
00000140: 9d95 643e beef febd cdc2 a7bb 1e5e 773c
00000150: a583 293e 1bda 913d e84f c33d 786c 313e
00000160: 39e2 323e 94dc 043e fbfe 03be 46d2 42be
00000170: 7c57 613d f988 9bbc fd72 2d3d ac3a 163e
00000180: 88c1 c1bd 6952 bbbd 962f d6bd ccda 95bd
00000190: 1913 f63d 8f8b 6abd ab84 8f3c 3968 34be
000001a0: acdf 81bd 4a91 1ebd 0e3e 80be ea51 6fbe
000001b0: 76c3 0ebe ef97 fd3d 139a 71be 76fa 2a3e
000001c0: a948 49be 9153 d0bd 46ef 2ebe 89a1 d3bd
000001d0: f667 063e a435 4f3e eca3 c6bc cf01 4bbe
000001e0: 4337 a23d dda6 303e 81f0 433d f57f 4dbe
000001f0: 6cf4 f23d 9327 8dbd b5c6 1d3d a2bf 2fbe
00000200: c8b9 63be 6b33 543e 5299 e7bd 946f 69bc
00000210: 06f0 69be 5eb2 3ebd f474 5bbd 607e 09be
00000220: 6418 f1bd e724 04be e00c 2f3e 7697 27be
00000230: 3230 da3c c886 05be be57 013e 682f 0a3e
00000240: adc1 1abb 5850 363e 3759 3d3e e6f5 bebd
00000250: 69f4 653d 9f56 a4bb f65e 9a3d 872b 8ab9
00000260: 0b6e 0fbd 3726 15be 7b1c d2bd 8af6 1cbc
00000270: a4b0 80be 5b36 2dbe 3561 c1bd 5f95 0dbd
00000280: f30c 2a3e 77bc 8f3d 5e4e dd3d bc1c 6cbe
00000290: 2264 44be 1537 3bbb 2f40 9dbb 2dca 1a3e
000002a0: 026c 4a3e 247a f53c e8ab 29be 6867 623e
000002b0: a085 9bbc f8b6 37be 28e2 5dbe 69ee 3ebe
000002c0: 8e2d 44be 7ca0 0f3e 5af7 e3bc 12a4 f2bd
000002d0: c865 2a3d 3618 84bc f309 7bbe 117a 3e3e
000002e0: 3f88 50be 2545 42bd ec02 8abc 69ce 1e3e
000002f0: 609c 5c3e 767e 24be 99cc e13d 976d 5a3d
00000300: 283d 6abe 5cdc da39 36d0 833d 33c2 81bc
00000310: d648 153e 1614 3abe 8afc 2e3e 7828 a439
00000320: e4b5 c23d ec6e 273e 5998 433e 3d63 143e
00000330: 8a62 983d eace 1a3e 1023 c8bc 3192 2f3e
00000340: 8db3 533d 696d f03d ed0e 883d 85b8 b13c
00000350: 4eb7 e53d 418f 06be a326 c43b ca74 8dbc
00000360: ce05 26be cbb2 693d 622f cd3c 6df1 1abb
00000370: 2c45 01be 874b 5cbe d098 803c 6051 d33c
00000380: 2971 b3bd 74c8 97bd cba9 553e 7fb6 b5bd
00000390: c882 a03d fbff e2bd 3800 583e 1b35 43be
000003a0: 1871 6abe 6f10 f53d 3e1a 28be bf87 d5bc
000003b0: 82e0 31be 348b a8bd d251 843d c4b8 1dbe
000003c0: c42c 123e ea95 a0bc bf49 423d 1d87 b6bd
000003d0: 77e0 c0bd 2abe 0ebd 24ff d53d f448 1f3e
000003e0: 5726 243e 9614 21be 80f8 fd3c 2b19 023e
000003f0: 21ff 3a3e 8463 483e 09ce eb3d 4c11 c5bc

layers.0.bias f4 [100]
0.043631062 0.040382765 -0.17890844 -0.23679246 -0.18643756 0.17915428 -0.086419635 -0.046107396
-0.26519215 0.10161672 0.15628043 0.024324073 -0.21742083 0.2105569 0.08414481 0.055362705
-0.12729234 0.14981167 0.18783711 -0.24766202 0.11807109 0.12173323 -0.08728369 -0.17300674
-0.02781211 -0.096771106 -0.20721628 0.024722757 0.20564432 0.20510635 0.05659995 -0.028364966
0.21808587 -0.018585231 -0.20040599 0.10845225 -0.10513324 0.12401682 0.037290692 -0.13478495
-0.020543482 0.100368336 0.09798042 -0.15384088 -0.06915009 -0.03573853 -0.07349906 0.04320642
0.11151413 0.13705291 0.002644243 0.100191146 -0.07105189 0.19042686 -0.18335046 0.105023615
0.10842157 0.16949509 -0.093900345 -0.069660775 -0.20438057 0.18529294 0.05938074 -0.24306601
-0.040825915 -0.21537304 0.14614414 -0.2539007 -0.19819972 0.16924106 0.019374669 0.16763845
-0.09792663 0.20804451 -0.14729194 0.04804589 0.1575542 -0.16102785 0.11382437 -0.027671725
-0.17931175 0.09003827 0.06509373 -0.13894911 0.12322656 -0.09082646 0.13835914 0.00495906
-0.047815144 -0.019661052 0.11103564 0.041778874 -0.056853745 -6.355955e-05 0.14274225 -0.05991178
0.13194595 0.018546395 -0.12251193 0.047792405
00000000: 7cb6 323d 6668 253d c633 37be b979 72be
00000010: 7de9 3ebe 3874 373e c7fc b0bd 1cdb 3cbd
00000020: 44c7 87be 6d1c d03d fa07 203e 4743 c73c
00000030: 91a3 5ebe 3a9c 573e 1d54 ac3d 01c4 623d
00000040: ec58 02be 3b68 193e 5f58 403e 1d9b 7dbe
00000050: 41cf f13d 464f f93d cbc1 b2bd ae28 31be
00000060: 39d6 e3bc ee2f c6bd 8130 54be 6187 ca3c
00000070: 6d94 523e 6607 523e 59d5 673d a55d e8bc
00000080: e751 5f3e 0e40 98bc 3a37 4dbe 371c de3d
00000090: 1950 d7bd 88fc fd3d 20be 183d 1105 0abe
000000a0: ce4a a8bc ea8d cd3d f5a9 c83d 7788 1dbe
000000b0: 909e 8dbd 9162 12bd ad86 96bd 37f9 303d
000000c0: 8561 e43d 9957 0c3e 094b 2d3b 0431 cd3d
000000d0: a783 91bd 42ff 423e 39c0 3bbe 9f16 d73d
000000e0: 210c de3d 1f90 2d3e d34e c0bd 4faa 8ebd
000000f0: 2449 51be 6fbd 3d3e 3839 733d 4ce6 78be
00000100: 1339 27bd c08a 5cbe cfa6 153e 46ff 81be
00000110: def4 4abe 874d 2d3e a0b7 9e3c 6aa9 2b3e
00000120: c28d c8bd 9f09 553e b3d3 16be c4cb 443d
00000130: e355 213e 7ce4 24be c01c e93d d0af e2bc
00000140: 809d 37be fc65 b83d dd4f 853d ad48 0ebe
00000150: 355e fc3d 3903 babd 05ae 0d3e 9c7f a23b
00000160: d0d9 43bd 3710 a1bc a766 e33d 5320 2b3d
00000170: 79df 68bd 464b 85b8 062b 123e 0e66 75bd
00000180: d71c 073e 9cee 973c 89e7 fabd f8c1 433d

layers.1.weight f4 [100, 100]
-0.0064648315 0.04430122 0.05799905 -0.051440038 0.025630385 -0.10135787 -0.043311924 -0.056184746
0.060066547 -0.11739804 0.060168788 0.005628564 0.08999506 0.0020311638 0.0731592 0.010987621
0.09123482 0.002149825 -0.09239461 -0.06458301 0.0035832715 -0.061703444 0.0611784 -0.057367742
-0.011553267 0.0164773 0.008125401 -0.01164919 -0.10004618 -0.09559151 -0.096342005 -0.05393119
0.08054335 0.061480228 -0.07458428 0.073603965 -0.05548732 0.059013497 0.07631889 -0.03956248
-0.09490169 -0.049433336 -0.057446122 0.039802708 0.0048416024 -0.027520597 -0.05949283 -0.007115859
-0.06795373 -0.0349837 0.05991362 0.053476073 -0.080595076 -0.056082573 -0.024327828 0.021160852
-0.024279179 0.025869325 0.042408787 0.088130824 -0.070580535 0.063586734 -0.024166485 -0.0881727
-0.03706595 0.07857299 -0.025324747 -0.07753638 -0.004874293 0.015339203 -0.019002143 0.00084218325
0.0017993454 0.07087907 -0.032315876 -0.06583123 -0.004564369 0.073740385 -0.02852643 -0.10391633
0.04667744 0.03310699 -0.050657984 -0.09166169 -0.07159043 -0.07596228 -0.041610993 -0.03834315
-0.052997977 -0.102706075 0.047581214 0.09731103 -0.078662045 -0.043037653 0.05283239 0.08517328
-0.07115196 -0.048536137 -0.035930727 0.032150622 -0.06357339 -0.04295227 -0.096270345 -0.07435194
0.016823268 -0.05850336 -0.020407626 0.060412284 0.06454216 0.046620857 0.09491635 0.009139376
-0.072432905 0.035429485 0.012813747 -0.04763379 -0.021228382 -0.094120674 -0.05519088 -0.042542282
0.03707798 -0.06546749 -0.09135162 -0.09019284 0.0031881896 -0.07245458 -0.102534674 0.055860307
-0.005053803 0.06687724 -0.00022160416 -0.020711314 -0.05850259 -0.008861523 -0.043618422 0.056078117
-0.09606083 -0.07960415 0.01401944 -0.0935741 0.023583028 0.053070955 -0.03565958 -0.05126049
-0.010911607 -0.11141015 -0.093912505 -0.04315257 0.0809961 0.09345753 0.06513983 -0.05734413
-0.09510164 -0.060910318 0.038930416 -0.035777766 0.07025012 -0.08233884 0.029556647 -0.10389226
0.01444994 -0.041245673 0.059166763 0.040313605 -0.09550505 0.076435454 0.007395621 -0.02354772
-0.035750236 -0.032582834 -0.06332792 -0.07846633 -0.056230083 -0.016023051 -0.07137754 -0.10627702
0.023826139 0.023960425 -0.0017984072 -0.10055615 -0.10631065 0.055847123 -0.020140652 0.06487186
0.060184367 -0.03526615 0.025415145 0.04864748 -0.09143146 -0.10755502 0.04211638 -0.046384815
0.0542219 -0.07269422 0.0048207548 0.042973846 0.071129546 0.012481132 0.011506858 0.025765602
-0.030296309 0.009784812 0.037440833 -0.009898578 0.015214181 0.039900705 -0.106050864 -0.024709435
-0.07122549 0.032655746 -0.09651177 -0.00901014 -0.0021276756 0.051018372 -0.09292759 0.09193374
-0.10744713 -0.044591557 0.03529117 0.046042643 -0.06858595 -0.10763227 0.04160159 -0.037949737
0.0639882 -0.06129058 0.04999957 -0.044689376 -0.018457564 -0.03908423 -0.11573119 -0.10681832
-0.07706267 -0.026388127 -0.07794826 -0.08265161 -0.066047564 -0.0119254 -0.05853192 -0.05666362
-0.031455357 0.08560336 -0.07275402 -0.12513608 0.0035862944 0.03190108 0.0821542 0.026102155
0.08376246 -0.055741414 0.008039642 0.03630807 0.017170843 -0.033374317 0.04333941 -0.063461035
00000000: f0d6 d3bb 3275 353d 6990 6d3d cab2 52bd
00000010: d0f6 d13c b794 cfbd d867 31bd fa21 66bd
00000020: 5708 763d 626e f0bd 8c73 763d d16f b83b
00000030: 544f b83d 461d 053b 7ed4 953d 6c05 343c
00000040: 52d9 ba3d 14e4 0c3b 6339 bdbd 1944 84bd
00000050: 52d5 6a3b c0bc 7cbd 3496 7a3d 70fa 6abd
00000060: ea49 3dbc 67fb 863c 6720 053c 3fdc 3ebc
00000070: 03e5 ccbd 7bc5 c3bd f54e c5bd f4e6 5cbd
00000080: e9f3 a43d b1d2 7b3d a5bf 98bd adbd 963d
00000090: ac46 63bd 23b8 713d 144d 9c3d 440c 22bd
000000a0: d15b c2bd 9c7a 4abd a04c 6bbd 2a08 233d
000000b0: 4ea6 9e3b e072 e1bc c1ae 73bd 272c e9bb
000000c0: 532b 8bbd 114b 0fbd fc67 753d ba09 5b3d
000000d0: 080f a5bd d7b6 65bd 274b c7bc 8659 ad3c
000000e0: 21e5 c6bc e8eb d33c d6b4 2d3d ef7d b43d
000000f0: 878c 90bd c339 823d cbf8 c5bc e393 b4bd
00000100: 77d2 17bd e0ea a03d d875 cfbc 65cb 9ebd
00000110: 89b8 9fbb 4851 7b3c 62aa 9bbc f6c5 5c3a
00000120: 03d8 eb3a 0c29 913d a75d 04bd 86d2 86bd
00000130: b490 95bb 3305 973d 42b0 e9bc 16d2 d4bd
00000140: d830 3f3d 329b 073d bf7e 4fbd 20b9 bbbd
00000150: 019e 92bd 1d92 9bbd 4a70 2abd b50d 1dbd
00000160: 6814 59bd 9057 d2bd 85e4 423d 014b c73d
00000170: 9119 a1bd 4048 30bd c766 583d 546f ae3d
00000180: 1eb8 91bd d4cd 46bd 192c 13bd 5fb0 033d
00000190: c432 82bd b8ee 2fbd 6329 c5bd d445 98bd
000001a0: f3d0 893c 38a1 6fbd e52d a7bc df72 773d
000001b0: ae2e 843d 83f5 3e3d 8163 c23d 52bd 153c
000001c0: b457 94bd 821e 113d c0f0 513c a61b 43bd
000001d0: 25e7 adbc 57c2 c0bd d50f 62bd d140 2ebd
000001e0: 14df 173d d213 86bd 8f16 bbbd 06b7 b8bd
000001f0: f2f0 503b 1163 94bd b3fd d1bd c7cd 643d
00000200: 5f9a a5bb eff6 883d 6a5e 68b9 c6aa a9bc
00000210: 69a0 6fbd ec2f 11bc 3ba9 32bd 2bb2 653d
00000220: 8abb c4bd 8007 a3bd cbb1 653c c7a3 bfbd
00000230: 3231 c13c ee60 593d c80f 12bd 85f6 51bd
00000240: 99c6 32bc 012b e4bd 3355 c0bd c0c0 30bd
00000250: 49e1 a53d a966 bf3d 0868 853d aee1 6abd
00000260: a6c4 c2bd 197d 79bd 8075 1f3d b58b 12bd
00000270: 4bdf 8f3d 44a1 a8bd c820 f23c 77c5 d4bd
00000280: 71bf 6c3c 39f1 28bd d958 723d e11f 253d
00000290: 2798 c3bd 318a 9c3d f756 f23b 26e7 c0bc
000002a0: d76e 12bd 9475 05bd 12b2 81bd f5b2 a0bd
000002b0: 8451 66bd c642 83bc 632e 92bd c4a7 d9bd
000002c0: 092f c33c a748 c43c 88b8 ebba 62f0 cdbd
000002d0: 66b9 d9bd f4bf 643d 02fe a4bc 8adb 843d
000002e0: e283 763d 3d73 10bd 6c33 d03c 9442 473d
000002f0: 6b40 bbbd ce45 dcbd 3a82 2c3d 01fe 3dbd
00000300: c817 5e3d b5e0 94bd 6cf7 9d3b 5805 303d
00000310: 5eac 913d a97d 4c3c 4387 3c3c 6212 d33c
00000320: f72f f8bc 7a50 203c 8f5b 193d a52d 22bc
00000330: e644 793c ec6e 233d 3231 d9bd 716b cabc
00000340: abde 91bd 08c2 053d f6a7 c5bd 449f 13bc
00000350: 7970 0bbb a4f8 503d d250 bebd c247 bc3d
00000360: 3e0d dcbd a3a5 36bd 798d 103d 3697 3c3d
00000370: ca76 8cbd 4f6e dcbd 6e66 2a3d 2f71 1bbd
00000380: 3f0c 833d d50b 7bbd 59cc 4c3d 350c 37bd
00000390: 5134 97bc c916 20bd 7904 edbd 90c3 dabd
000003a0: 08d3 9dbd ea2b d8bc 56a3 9fbd 3f45 a9bd
000003b0: f243 87bd c162 43bc 2bbf 6fbd 1d18 68bd
000003c0: 55d7 00bd d050 af3d 0f00 95bd ac23 00be
000003d0: 0908 6b3b b5aa 023d 7640 a83d 30d4 d53c
000003e0: a78b ab3d 1c51 64bd b4b8 033c c5b7 143d
000003f0: dea9 8c3c 82b3 08bd aa84 313d dcf7 81bd

layers.1.bias f4 [100]
0.0362013 -0.042330563 0.023242103 0.0051058796 0.024460189 0.06488328 0.026448024 -0.033845272
-0.09023287 -0.07434633 0.012847248 -0.09495482 0.07647332 0.07853199 0.03683826 -0.048832327
0.030146582 -0.109786674 -0.077483304 -0.093039475 -0.06949294 0.035364516 0.08209697 0.007407688
-0.02305913 -0.09744185 -0.054123107 -0.10122432 0.07530739 -0.10846659 -0.014545362 -0.06302233
-0.053366896 -0.032777525 -0.019346375 0.03198805 0.0024233733 -0.04018924 0.06654126 -0.04167576
0.08212081 -0.072351605 -0.09673317 0.042905446 0.040322363 -0.055265404 0.082012616 -0.102037266
-0.01706033 0.07269836 -0.0781265 -0.068993434 -0.022172553 0.009379663 -0.029689342 -0.07849908
0.08187238 0.05274831 0.037791166 -0.08236086 -0.102538414 -0.07501963 -0.009648331 0.08248288
-0.016589232 -0.02501326 0.05452124 -0.01786184 -0.056953765 0.058165256 0.0785595 -0.022061488
-0.00957112 0.07150957 0.027236333 -0.030410698 -0.02504844 -0.03208464 -0.04727112 0.04498304
-0.03877157 0.09132382 0.010598427 -0.04701892 0.0912552 0.044807855 -0.09600035 -0.03557704
-0.02320467 -0.055065483 -0.01660675 0.04350045 0.090791106 -0.063000806 -0.01268733 -0.07347471
-0.047896627 -0.019946907 -0.10718062 0.024627352
00000000: d047 143d d062 2dbd 3966 be3c 394f a73b
00000010: bc60 c83c 86e1 843d 87a9 d83c 57a1 0abd
00000020: 03cc b8bd e342 98bd 447d 523c ac77 c2bd
00000030: 0b9e 9c3d 61d5 a03d b7e3 163d 6804 48bd
00000040: f7f5 f63c d6d7 e0bd 91af 9ebd 7b8b bebd
00000050: 5152 8ebd 62da 103d 7522 a83d 31bc f23b
00000060: 80e6 bcbc 988f c7bd 31b0 5dbd b24e cfbd
00000070: c33a 9a3d bb23 debd ac4f 6ebc da11 81bd
00000080: 3f97 5abd ba41 06bd 4a7c 9ebc e705 033d
00000090: 75d1 1e3b 799d 24bd c946 883d 34b4 2abd
000000a0: f52e a83d 142d 94bd 0a1c c6bd 9fbd 2f3d
000000b0: 1029 253d fa5d 62bd 3bf6 a73d eaf8 d0bd
000000c0: 1bc2 8bbc e1e2 943d c900 a0bd 6e4c 8dbd
000000d0: 37a3 b5bc 28ad 193c 1037 f3bc 20c4 a0bd
000000e0: b5ac a73d 9d0e 583d e9ca 1a3d d0ac a8bd
000000f0: a9ff d1bd e4a3 99bd 0914 1ebc c9ec a83d
00000100: 24e6 87bc 9ce8 ccbc aa51 5f3d fe52 92bc
00000110: 5a48 69bd b13e 6e3d cee3 a03d 4bba b4bc
00000120: 30d0 1cbc 9c73 923d bb1e df3c db1f f9bc
00000130: 6332 cdbc 2f6b 03bd 5d9f 41bd 2340 383d
00000140: f0ce 1ebd fc07 bb3d 06a5 2d3c e996 40bd
00000150: 02e4 ba3d 7188 373d d59b c4bd 3bb9 11bd
00000160: b817 bebc 588c 61bd e10a 88bc 872d 323d
00000170: b0f0 b93d 9106 81bd 85de 4fbc e979 96bd
00000180: 412f 44bd b267 a3bc 8381 dbbd 4dbf c93c

layers.2.weight f4 [1, 100]
0.0686513 0.0019013054 0.0015786049 0.051538087 0.06931107 -0.06709783 -0.07756952 -0.00654363
-0.002076277 0.06822194 0.079875275 0.06678164 0.070136085 -0.075901695 0.004391802 0.07863352
0.07738936 -0.017241284 0.08134889 -0.097849086 0.005262286 0.026381124 0.021254838 0.01882307
0.043641966 -0.04142338 0.09350009 -0.08448569 0.07388696 -0.008636342 -0.036820192 -0.009289616
0.015555841 0.0005204931 -0.00085409125 0.015413038 -0.04993077 -0.095111996 -0.0047445293 0.045580056
0.014730439 0.05978113 0.060896747 0.004221179 -0.04595324 0.00079023204 0.0024825635 0.06893048
0.001228052 0.06455295 0.06352726 -0.07589013 -0.0056164553 0.092789754 -0.0226422 0.036641333
0.060520962 0.03339857 0.032036196 0.075425595 -0.041415114 0.02814639 -0.08862032 0.025236983
-0.048311554 -0.024551535 0.018281946 -0.010766644 0.06975556 -0.07238471 -0.07369154 -0.007377201
0.020384122 0.018921362 0.02733146 -0.031716697 0.06040145 0.017575769 -0.077896915 -0.06980132
0.08808498 0.02239865 0.0045514726 -0.06875024 0.02987697 -0.077486314 -0.081096984 0.011241728
0.019798545 -0.0022721994 0.00024748046 -0.002183349 0.022161731 -0.06067377 -0.056923483 -0.09422468
0.03286423 -0.06441064 0.007127532 0.030911993
00000000: 0e99 8c3d 3935 f93a 31e9 ce3a 9a19 533d
00000010: f6f2 8d3d 966a 89bd c5dc 9ebd f26b d6bb
00000020: 2612 08bb f2b7 8b3d a695 a33d d0c4 883d
00000030: 82a3 8f3d 5972 9bbd 1be9 8f3b 9c0a a13d
00000040: 507e 9e3d 983d 8dbc 3f9a a63d 1a65 c8bd
00000050: 416f ac3b 3a1d d83c a01e ae3c d732 9a3c
00000060: ebc1 323d 90ab 29bd fa7c bf3d d506 adbd
00000070: 0c52 973d 727f 0dbc c5d0 16bd 7933 18bc
00000080: eddd 7e3c b371 083a 18e5 5fba f886 7c3c
00000090: 3584 4cbd 14ca c2bd ff77 9bbb 27b2 3a3d
000000a0: f057 713c 0fdd 743d de6e 793d d151 8a3b
000000b0: 7739 3cbd 9327 4f3a 81b2 223b 6c2b 8d3d
000000c0: 96f6 a03a 5634 843d 951a 823d 496c 9bbd
000000d0: 3e0a b8bb 8e08 be3d 237c b9bc 3915 163d
000000e0: d4e4 773d f0cc 083d 6338 033d bc78 9a3d
000000f0: e5a2 29bd 4293 e63c 927e b5bd cabd ce3c
00000100: 56e2 45bd 4d20 c9bc 05c4 953c 9466 30bc
00000110: 01dc 8e3d 6f3e 94bd 97eb 96bd 73bc f1bb
00000120: 9afc a63c f900 9b3c 3ae6 df3c 5ee9 01bd
00000130: 8367 773d 0ffb 8f3c 6b88 9fbd fff3 8ebd
00000140: e665 b43d 607d b73c 8524 953b edcc 8cbd
00000150: 8cc0 f43c 25b1 9ebd 2d16 a6bd 3a2f 383c
00000160: 8f30 a23c 2ee9 14bb 44c0 8139 8516 0fbb
00000170: 858c b53c 0f85 78bd 9928 69bd def8 c0bd
00000180: a59c 063d bae9 83bd 128e e93b 263b fd3c
