experiments/results/A/models/modelA1.pkl (torch, 50629 bytes, 5 tensors)

layers.0.weight f4 [100, 18]
0	0xbca15180	-0.019692183
1	0xbd85b598	-0.06528777
2	0xbd939e2c	-0.07207903
3	0x3e447de0	0.19188643
4	0xbdb36c6f	-0.087609164
5	0xbd9723c7	-0.07379871
6	0x3e0c5ec1	0.13708021
7	0x3da93d25	0.082636155
8	0xbc2363db	-0.009972538
9	0xbe372ea1	-0.17888881
10	0x3e47fa8c	0.1952917
11	0xbdb5aa85	-0.08870415
12	0x3ddc9e33	0.107723616
13	0xbd82d24c	-0.06387767
14	0xbd356594	-0.044286326
15	0x3e05b357	0.13056694
16	0xbe6dee3a	-0.23235407
17	0x3d61ab0d	0.055094767
18	0xbe4bb8b6	-0.1989468
19	0x3c70bb73	0.014693129
20	0xbe41563f	-0.18880557
21	0x3e36a6c3	0.17837052
22	0xbe26f9be	-0.16306207
23	0xbe2e9e14	-0.1705249
24	0xbe4e14f5	-0.20125182
25	0x3abab15a	0.0014243529
26	0x3d982283	0.074284576
27	0x3dff3170	0.12460601
28	0x3de8895e	0.11354326
29	0xbe0b470d	-0.13601322
30	0x3deb0fde	0.11477636
31	0xbe01e481	-0.12684824
32	0x3df1662b	0.11787065
33	0x3e43d561	0.19124366
34	0xbe220385	-0.15821655
35	0x3e50fee3	0.20409732
36	0x3d7506b1	0.059820835
37	0xbd9246a6	-0.07142381
38	0xbe3343c0	-0.17506313
39	0x3e1fd17a	0.15607253
40	0x3d47000c	0.04858403
41	0x3d2353a3	0.039874684
42	0x3e09595c	0.13412994
43	0xbc8baacd	-0.017049218
44	0x3e2ff7bd	0.17184348
45	0xbe2ed90a	-0.17074981
46	0xbdd19256	-0.102329895
47	0xbd37a59e	-0.04483568
48	0x3d688bef	0.056774076
49	0x3d1827ce	0.037147336
50	0x3de3344c	0.11093959
51	0xbe15e0b8	-0.14636505
52	0xbe3a06f3	-0.18166713
53	0xbd018156	-0.031617485
54	0x3e49d7e3	0.1971126
55	0xbe7292c3	-0.23688798
56	0xbe0e93a4	-0.13923508
57	0xbde78eb0	-0.11306512
58	0xbe52bfd9	-0.20580997
59	0xbe455f90	-0.19274735
60	0x3d8b3f43	0.067991756
61	0x3e4857e2	0.19564775
62	0xbd3b2ed8	-0.04569897
63	0x3de4fe89	0.11181361
64	0x3dce4078	0.1007089
65	0x3e1c7823	0.15280204
66	0x3e1e0385	0.1543103
67	0xbdc57621	-0.09641672
68	0xbc1ad549	-0.009450265
69	0xbe2b6d3d	-0.1674089
70	0xbe4a9c17	-0.19786106
71	0xbe0e7c1e	-0.13914534
72	0x3d22967b	0.03969429
73	0x3e1174e6	0.1420475
74	0x3e130817	0.14358555
75	0xbe4f03fc	-0.20216364
76	0x3da4dbef	0.080497615
77	0x3e1d1d3b	0.15343182
78	0xbcd0c5eb	-0.025485
79	0xbd19efc6	-0.03758218
80	0xbb2d386f	-0.0026431342
81	0xbe8557ea	-0.26043636
82	0xbe0cf1ea	-0.13764158
83	0xbe11ada8	-0.14226401
84	0xbe035da3	-0.12828688
85	0xbe6084e6	-0.21925697
86	0x3e4a41db	0.19751684
87	0x3d88f381	0.0668707
88	0xbdb0dbbd	-0.08635662
89	0x3e4656ab	0.19368999
90	0xbe239508	-0.1597482
91	0x3e09e9af	0.1346805
92	0x3db887d3	0.090102814
93	0x3e0efa5a	0.13962689
94	0xbcf51b1f	-0.029920159
95	0x3e4722df	0.19446896
96	0xbd2572e9	-0.04039279
97	0x3dcf54ce	0.10123597
98	0x3c180716	0.009279033
99	0x3e556e7f	0.20842932
100	0xbe5cbe31	-0.21556927
101	0x3d14bca1	0.036312703
102	0x3e326d5a	0.17424527
103	0x3e0940f5	0.13403685
104	0x3e42ee68	0.19036257
105	0xbe64cfc3	-0.2234488
106	0x3e261f2a	0.16222826
107	0x3e30cf62	0.1726661
108	0xbd4087f5	-0.04700466
109	0x3e309dac	0.17247647
110	0x3e336bc4	0.17521578
111	0xbbe35a08	-0.006938223
112	0x3ad6969e	0.0016371792
113	0xbd27ef06	-0.040999435
114	0x3e1f2caa	0.15544382
115	0xbe1b13c4	-0.15144259
116	0xbd02a86c	-0.0318989
117	0xbe6099c7	-0.21933661
118	0x3e26ec11	0.1630099
119	0xbd8bee71	-0.068325885
120	0x3c1954de	0.009358613
121	0xbde498f4	-0.11161986
122	0x3e019ad1	0.12656714
123	0x3e1f066c	0.15529794
124	0x3d69215d	0.056916583
125	0xbe84303d	-0.25818053
126	0x3e356570	0.17714477
127	0x3ddbf27f	0.10739612
128	0xbd806d7e	-0.06270884
129	0xbd8501bb	-0.06494471
130	0xbe5c23cd	-0.21498032
131	0x3d3e0888	0.046394855
132	0xbe708182	-0.23486903
133	0xbe1827c9	-0.14858927
134	0x3c3626ce	0.01111765
135	0xbe0f2287	-0.13978015
136	0xbe223c47	-0.15843306
137	0xbdb3f35a	-0.0878665
138	0x3db7154d	0.0893961
139	0x3dfb2472	0.12262811
140	0x3d4f20aa	0.05056826
141	0xbd510d02	-0.051037796
142	0xbdf2e4bb	-0.11860033
143	0x3c3c283f	0.011484205
144	0xbe70789f	-0.23483513
145	0x3cac782b	0.021053394
146	0xbde03417	-0.10947435
147	0x3e510671	0.20412613
148	0xbc75df27	-0.015006817
149	0xbe151ce2	-0.14561799
150	0xbdabfa1d	-0.08397315
151	0xbe51d3df	-0.20490979
152	0x3e52f31e	0.20600554
153	0x3de21135	0.11038438
154	0xbe7467e5	-0.23867758
155	0xba887dfb	-0.0010413522
156	0xbe06c3f9	-0.13160695
157	0xbe5bc0ce	-0.21460268
158	0x3e623acb	0.2209274
159	0xbe7518bc	-0.23935217
160	0xbd6bd2d4	-0.05757411
161	0xbe1e2308	-0.15443051
162	0x3dbfd2de	0.093663916
163	0xbe267a4a	-0.16257587
164	0x3bc80aea	0.0061048167
165	0x3e015166	0.12628707
166	0x3dae2be8	0.08504468
167	0xbcdda864	-0.027057834
168	0x3db1b6a9	0.08677418
169	0xbe14bf52	-0.14526108
170	0x3d8a1095	0.06741444
171	0xbc19bc25	-0.009383236
172	0xbe59d817	-0.21273838
173	0x3cc112d0	0.02356854
174	0x3d6f92c2	0.05848957
175	0xbdf165ac	-0.117869705
176	0xbe768b92	-0.2407668
177	0x3e219374	0.15778905
178	0x3d90cd65	0.07070426
179	0xbd8bcb42	-0.06825878
180	0xbe372c94	-0.17888099
181	0xbe347aab	-0.17624919
182	0xbe186e3b	-0.148858
183	0x3e1debb5	0.15421946
184	0xbbdc6862	-0.0067263106
185	0x3d797711	0.060904566
186	0xbe7a65ab	-0.24452846
187	0xbe11b5ba	-0.1422948
188	0x3d90fdef	0.07079684
189	0xbe0fc941	-0.14041616
190	0xbd3e69de	-0.04648768
191	0x3e3d30be	0.18475625
192	0x3beec817	0.007287036
193	0x3da6861f	0.0813105
194	0xbdb6aa43	-0.089191936
195	0xbe4b866d	-0.19875498
196	0xbe2cedfd	-0.1688766
197	0xbdf81dc8	-0.12115055
198	0x3d9c4534	0.07630387
199	0xbde8da9d	-0.11369822
200	0x3dae2cfb	0.08504673
201	0xbe20d148	-0.15704834
202	0xbe447066	-0.19183502
203	0xbdba162e	-0.09086262
204	0x3e0cabde	0.13737437
205	0x3e307ac3	0.1723433
206	0x3c7fc69c	0.015611317
207	0x3e4dec01	0.2010956
208	0x3da5d6d7	0.08097618
209	0x3e27255a	0.16322842
210	0xbd91ad7b	-0.07113167
211	0x3c873b53	0.01650778
212	0xbdc04343	-0.09387829
213	0xbd997d6a	-0.07494624
214	0xbe002865	-0.1251541
215	0xbe26ef43	-0.16302209
216	0xbdc8bf2c	-0.09802088
217	0xbe2e012c	-0.16992635
218	0xbd0e7983	-0.03478385
219	0x3df8dda4	0.121516496
220	0x3d4f3503	0.050587665
221	0x3e5c1b73	0.21494846
222	0x3e0cab4e	0.13737223
223	0xbd5a08d9	-0.053231094
224	0x3e0118ac	0.12607068
225	0x3cb78c55	0.022405783
226	0xbe326f33	-0.17425232
227	0xbd413039	-0.04716513
228	0x3e2297ab	0.15878169
229	0x3ce173ec	0.027521096
230	0x3e67e629	0.22646393
231	0xbd0e3c53	-0.0347255
232	0x3e1d46d0	0.15359044
233	0xbddd97ee	-0.10819994
234	0x3e86b67c	0.263111
235	0xbe2cab52	-0.16862229
236	0x3e3af053	0.18255739
237	0x3e6df47d	0.23237796
238	0x3e1e1aac	0.15439862
239	0xbdfcd92e	-0.12346111
240	0xbc84e55e	-0.016222652
241	0xbdb91603	-0.090374015
242	0x3dd138ed	0.10215936
243	0xbdd4da9a	-0.103932574
244	0x3c8eb4a4	0.01742012
245	0xbe511c8b	-0.20421045
246	0xbc60168f	-0.013677253
247	0x3e3862e6	0.18006477
248	0xbdd9bb69	-0.10631449
249	0xbdade4a4	-0.08490875
250	0xbe459c72	-0.1929796
251	0xbe6935df	-0.22774456
252	0x3e09c6e1	0.13454773
253	0x3d17258b	0.03690104
254	0xbe483a72	-0.19553545
255	0x3d84bbcf	0.06481134

layers.0.bias f4 [100]
0	0xbe0d808b	-0.13818567
1	0xbe6f5819	-0.2337345
2	0xbe52e9e9	-0.20597042
3	0xbd737ae8	-0.059443384
4	0x3e1237be	0.14279076
5	0x3c756c6d	0.014979464
6	0x3db0a8c5	0.0862594
7	0x3e3a8a8d	0.18216915
8	0x3de9311c	0.1138632
9	0xbd874f0f	-0.06606876
10	0x3dc4f055	0.09616152
11	0x3d584cdf	0.052807685
12	0xbdc554ed	-0.09635339
13	0xbe5e6682	-0.21718791
14	0x3d79c8da	0.060982563
15	0x3de759ef	0.1129645
16	0x3e619fc2	0.22033599
17	0x3d081008	0.033218414
18	0x3dd75479	0.10514159
19	0x3e05e138	0.13074195
20	0x3db322b2	0.08746852
21	0xbe853345	-0.26015678
22	0x3d5dd8dd	0.054161895
23	0xbb4ef3be	-0.0031578387
24	0x3c90b532	0.017664526
25	0x3d7322ff	0.059359547
26	0x3e5f9bd2	0.21836784
27	0xbdc7d1a7	-0.09756785
28	0xbd22e773	-0.03977151
29	0xbe61ed7e	-0.22063252
30	0xbdd25116	-0.10269372
31	0x3e46f280	0.19428444
32	0xbdc9cf38	-0.09853977
33	0xbe1e11f2	-0.15436533
34	0xbb9afa4e	-0.0047295457
35	0xbd37dc16	-0.044887625
36	0x3d99ba7c	0.07506272
37	0xbba6e893	-0.005093643
38	0x3e42954a	0.19002262
39	0xbdecf005	-0.115692176
40	0x3e0c0367	0.13673173
41	0xbe1e13f4	-0.15437299
42	0xbe3b6ab9	-0.1830243
43	0x3dae2c27	0.08504515
44	0x3df8318f	0.121188276
45	0xbdaeebd9	-0.08541078
46	0xbe4cfd72	-0.20018557
47	0x3e3fd006	0.18731698
48	0xbcfce148	-0.030869141
49	0x3e37d6bd	0.1795301
50	0xbe52f647	-0.2060176
51	0xbda238b2	-0.0792097
52	0xbe667aad	-0.22507735
53	0xbe7a61aa	-0.24451318
54	0x3ddc41cf	0.107547395
55	0xbe44830c	-0.19190615
56	0xbd60f196	-0.054917894
57	0xbcc3d6b0	-0.023906082
58	0xbc861e30	-0.016371816
59	0x3e2cc79e	0.16873023
60	0xbe353c81	-0.17698862
61	0xbe60674d	-0.21914406
62	0xbd1fd9c3	-0.039026033
63	0xbd954907	-0.072893195
64	0x3bbdc72a	0.0057915645
65	0x3d90d366	0.07071571
66	0x3e0726be	0.13198373
67	0x3e3bcb06	0.18339166
68	0xbc2249da	-0.009905303
69	0x3dd9dcb6	0.106378004
70	0x3d72e864	0.059303656
71	0x3ccdd4cb	0.025125882
72	0x3c2962ac	0.010338467
73	0x3d83c972	0.06434907
74	0x3e639880	0.22226143
75	0x3e52e01d	0.20593305
76	0xbe05ee96	-0.13079295
77	0xbe75018d	-0.23926373
78	0x3cf4bbae	0.029874649
79	0xbdda83a0	-0.10669637
80	0x3e364bd7	0.17802368
81	0xbe3bd1a8	-0.18341696
82	0xbe05d275	-0.13068564
83	0x3c430a06	0.011904245
84	0x3d4202d6	0.047365986
85	0x3e093e61	0.13402702
86	0x3c09bb06	0.008406406
87	0x3d211911	0.039330546
88	0xbe7a6e72	-0.24456194
89	0x3dfd618b	0.123721205
90	0xbe15f198	-0.14642942
91	0x3e60b9f2	0.21945933
92	0xbdb85ef7	-0.09002488
93	0xbcbd9113	-0.023140466
94	0x3e26419b	0.16235964
95	0x3e2a0557	0.166036
96	0xbd86f7f7	-0.06590264
97	0x3dc1589a	0.094407275
98	0x3e319479	0.17341794
99	0xbd8ef246	-0.06979804

layers.1.weight f4 [100, 100]
0	0x3d18bbe6	0.03728857
1	0x3ca657c8	0.02030553
2	0xbbe0cb82	-0.0068601975
3	0xbd9e286b	-0.07722553
4	0xbd68b908	-0.056817085
5	0xbd9e484d	-0.07728634
6	0xbd411474	-0.047138646
7	0x3c47626e	0.012169464
8	0x3d2980fb	0.04138277
9	0x3da494fd	0.0803623
10	0x3d81737c	0.06320855
11	0xbdcac02b	-0.098999344
12	0xbd6968fd	-0.05698489
13	0xbd844b00	-0.064596176
14	0xbd196ede	-0.037459247
15	0x3d925bf5	0.07146446
16	0xbd20a10c	-0.039216086
17	0xbd89fa22	-0.06737162
18	0x3d0e5981	0.034753326
19	0xbc9c8dc7	-0.019110573
20	0xbc330428	-0.010926284
21	0xbd96d715	-0.073652424
22	0x3d2c1f6a	0.042022146
23	0x3d45b5ac	0.04826896
24	0xbda12099	-0.07867546
25	0x3d7584a5	0.059940953
26	0x3d48893e	0.04895901
27	0xbd61dc84	-0.05514194
28	0x3d2c0d5a	0.04200492
29	0xbd38d66c	-0.045126364
30	0x3cc7269a	0.024310399
31	0x3c6907c8	0.014223047
32	0x3db18fad	0.08669982
33	0xbd7f67ee	-0.062354974
34	0xbd636235	-0.05551358
35	0x3d0681a4	0.03283848
36	0xbd47b946	-0.048760675
37	0x3d064f8f	0.032790717
38	0xbbe18b8f	-0.0068830918
39	0x3d302ae9	0.043009672
40	0x3d476dd9	0.048688743
41	0xbc7cdf81	-0.015434147
42	0xbd5819ee	-0.052759103
43	0xbdd0472d	-0.10169826
44	0xbcbb7450	-0.02288261
45	0xbbe4e9d2	-0.0069858814
46	0xbdca1a2f	-0.098682754
47	0xbd6a7ff1	-0.05725092
48	0x3daebd78	0.08532232
49	0x3c0ac677	0.008470169
50	0x3d8ac402	0.06775667
51	0xbc5773fd	-0.013150212
52	0x3c5d19da	0.013494933
53	0xbda4a47a	-0.08039184
54	0xbdcef2b1	-0.101048835
55	0x3da197df	0.07890295
56	0xbd37ba0d	-0.044855166
57	0x3d2b226e	0.04178088
58	0xbbef6906	-0.007306221
59	0xbc77b7ca	-0.015119502
60	0xbd46fb33	-0.048579406
61	0x3d1daf5e	0.03849732
62	0x3d7b0e47	0.061292913
63	0xbdab54c7	-0.08365779
64	0xbd03391a	-0.03203688
65	0xbd98b724	-0.07456806
66	0x3d8a5f39	0.067564435
67	0x3db8fa7f	0.09032153
68	0xbdb29537	-0.08719867
69	0xbdb96e9e	-0.09054302
70	0x3db09daa	0.08623822
71	0x3d6a84a5	0.057255406
72	0xbc8c9731	-0.017161937
73	0xbcf59891	-0.029979976
74	0x3d794596	0.060857378
75	0xbca0ef87	-0.019645466
76	0x3d026349	0.031832967
77	0x3db447ee	0.08802782
78	0x3d5b4206	0.05352976
79	0xbd3c558c	-0.04598002
80	0xbddb4926	-0.10707311
81	0x3ca4d0de	0.020119127
82	0x3d6e7665	0.05821838
83	0xbd33cb12	-0.043894835
84	0x3d4f08e3	0.050545584
85	0xbd9a132e	-0.075231895
86	0xbcf6d8dd	-0.030132705
87	0x3be514f9	0.0069910255
88	0xbd09fc9d	-0.033688176
89	0xbade57ec	-0.0016963459
90	0xbd9a4a25	-0.07533673
91	0xbd35b29c	-0.04435979
92	0xbdd37d57	-0.10326641
93	0x3c4cb45a	0.012494171
94	0xbd9ffb1b	-0.078115664
95	0xbd3c59be	-0.045984022
96	0xbd191cc0	-0.037380934
97	0xbcb602aa	-0.022218067
98	0x3d7443ed	0.05963509
99	0x3d0b9014	0.03407295
100	0x3d21fd0e	0.039547972
101	0xbcf5bb15	-0.029996434
102	0xbdb8c4fc	-0.09021947
103	0x3d2e8abf	0.042612787
104	0x3c7d7f26	0.015472209
105	0xbd451353	-0.048114132
106	0xbd7490f6	-0.059708558
107	0x3c897ac3	0.01678217
108	0x3da34d7d	0.07973764
109	0xbdcf3e80	-0.10119343
110	0xbdc82aeb	-0.09773811
111	0xbcdc6909	-0.026905553
112	0xbda336b1	-0.07969416
113	0xbd0e1cab	-0.03469531
114	0x3d96f3cf	0.073707215
115	0x3d1a85cd	0.03772526
116	0x3d509fcd	0.050933648
117	0xbdb739aa	-0.089465454
118	0x3d524e09	0.05134395
119	0x3d99e327	0.07514029
120	0xbd1bbaa2	-0.038019784
121	0xbd7144d3	-0.058903527
122	0x3daf1e61	0.08550716
123	0xbd315437	-0.043293204
124	0xbc947157	-0.01812045
125	0xbd53e3ca	-0.05173091
126	0xbccaf11f	-0.024773179
127	0x3d34c51c	0.04413329
128	0xbd6404d3	-0.055668663
129	0x3d4d821b	0.050172906
130	0xbd99c140	-0.07507563
131	0x3cf18698	0.029483125
132	0xbb4c5a63	-0.0031181804
133	0xbdb85304	-0.09000209
134	0xbc941ecf	-0.018081097
135	0xbd05c225	-0.032655854
136	0xbdacc652	-0.08436264
137	0xbbe3265e	-0.006932064
138	0xbd8d4e91	-0.06899751
139	0xbc392530	-0.01130037
140	0xbcb04843	-0.021518832
141	0xbd3ba541	-0.045811895
142	0x3da6496c	0.08119473
143	0x3c8b40bf	0.016998647
144	0x3dbf86d4	0.09351888
145	0xbc6a6e86	-0.014308577
146	0xbd0d517e	-0.034501545
147	0xbc39aabf	-0.011332213
148	0x3d9c81e6	0.07641964
149	0x3d22fa8e	0.03978973
150	0xbd9495cb	-0.07255133
151	0x3d40885f	0.047005054
152	0xbe01bb02	-0.12668994
153	0x3c87da23	0.016583508
154	0xbb2d4015	-0.00264359
155	0x3d040d30	0.03223914
156	0xb85cc9a9	-5.2639898e-05
157	0xbb4143f1	-0.002948996
158	0xbc75203c	-0.014961299
159	0x3d9115ee	0.07084261
160	0x3d86e366	0.065863416
161	0x3d99ecf0	0.07515895
162	0xbc834705	-0.016025076
163	0x3cac7223	0.021050518
164	0xbdc7e00c	-0.097595304
165	0x3d6928a1	0.056923512
166	0xbbd127e4	-0.006382929
167	0xbd576255	-0.05258401
168	0xba16ceef	-0.00057528814
169	0x3d9943cd	0.07483635
170	0x3d8a6b0a	0.06758697
171	0x3c9915df	0.018687187
172	0x3d7ad466	0.061237715
173	0xbd0223c9	-0.03177241
174	0xb9509e03	-0.0001989529
175	0xbd368076	-0.044556104
176	0x3c9e1cbc	0.019300811
177	0x3daa5bb3	0.083182715
178	0xbb96e4ee	-0.0046049273
179	0x3cee967b	0.029124489
180	0x3d1d0fb5	0.038345058
181	0xbdc03305	-0.09384731
182	0xbd599279	-0.053118203
183	0x3d16b669	0.036795054
184	0x3d9718b6	0.0737776
185	0x3d646da7	0.055768635
186	0xbcc141de	-0.023590978
187	0xbc2bdd58	-0.010489784
188	0xbd50990b	-0.050927203
189	0x3db7bd76	0.08971684
190	0xbd082a47	-0.033243444
191	0x3dbfb5b2	0.093608275
192	0x3bce6719	0.0062989113
193	0xbde3f102	-0.11129953
194	0x3da52e6d	0.08065496
195	0x3c33c09c	0.010971215
196	0xbce1f54c	-0.027582787
197	0x3dc5a703	0.096509956
198	0xbd601b34	-0.054713443
199	0x3cb73810	0.0223656
200	0xbbc444c3	-0.0059896423
201	0xbcc32735	-0.023822406
202	0xbcc304fb	-0.023806086
203	0x3dac1225	0.08401898
204	0x3d0ad2ca	0.03389243
205	0xbd7e6bf7	-0.062114682
206	0xbd8efe50	-0.069821
207	0xbb9ed0b3	-0.004846656
208	0xbdc579cd	-0.09642372
209	0x3d1c5bec	0.0381736
210	0xbd893a3b	-0.0670056
211	0x3d12d666	0.035848998
212	0x3d8d7a87	0.06908136
213	0x3a96302d	0.0011458449
214	0x3c9a092a	0.018803198
215	0xbbf38e48	-0.0074327327
216	0x3c80632b	0.015672287
217	0xbda05a98	-0.078297794
218	0x3d98e803	0.07466128
219	0xbd8fd0e4	-0.070222646
220	0x3d3d584c	0.046226785
221	0xbdea3b6d	-0.11437116
222	0xbd2dddc1	-0.04244781
223	0x3d9445d9	0.07239885
224	0xbdb5538f	-0.08853828
225	0x3d15fea6	0.036619805
226	0xbd5ddb63	-0.0541643
227	0x3dc21be7	0.09477978
228	0xbc67ab40	-0.01413995
229	0xbd7d0d0d	-0.061780024
230	0x3cce2c14	0.025167502
231	0xbbf21984	-0.0073882956
232	0x3b099893	0.0020995482
233	0x3ccdd48b	0.025125762
234	0x3cd9b107	0.026573671
235	0x3b686c27	0.0035464854
236	0x3d6ae187	0.057343986
237	0xbd846a5e	-0.064656004
238	0xbcdd7e2d	-0.027037704
239	0x3d8896c2	0.0666938
240	0x3d4dd56b	0.05025236
241	0xbc7900d8	-0.015197955
242	0xbddf3410	-0.10898602
243	0x3d36f686	0.044668697
244	0xbdde8a55	-0.108662285
245	0xbd544faa	-0.051833786
246	0xbd941f7f	-0.0723257
247	0xbdb46014	-0.08807388
248	0xbd94188a	-0.07231243
249	0xbc903d7a	-0.01760744
250	0xbd47418d	-0.0486465
251	0xbd7e38ec	-0.062066004
252	0xbd2252e0	-0.039629817
253	0x3d26d7fd	0.040733326
254	0xbdb3d285	-0.08780388
255	0xbd922668	-0.07136232

layers.1.bias f4 [100]
0	0xbad8fe2c	-0.0016555241
1	0xbd8c97d1	-0.06864894
2	0xbcb5227e	-0.022111174
3	0xbd98970d	-0.07450686
4	0xbd983884	-0.074326545
5	0xbbf4f470	-0.0074754283
6	0xbd087bc0	-0.033321142
7	0xbc635881	-0.013876081
8	0x3d8af783	0.0678549
9	0xbd9dc2b5	-0.07703153
10	0x3bad1b56	0.0052827997
11	0xbc8bc5cf	-0.017062096
12	0x3d4f18b1	0.050560657
13	0x3cac4ea5	0.021033594
14	0xbd8abd41	-0.067743786
15	0x3ca7f027	0.020500256
16	0xbdb7a10f	-0.08966266
17	0x3d566729	0.052344475
18	0x3d9d1238	0.076694906
19	0xbc4fa898	-0.012674473
20	0x3ce87f2a	0.028380949
21	0xbd29abb6	-0.041423522
22	0x3cffb2b1	0.031213136
23	0xbdc2dafb	-0.095144235
24	0x3d8c8e83	0.068631195
25	0x3d2ba344	0.04190375
26	0x3d85f6e3	0.065412305
27	0xbbde602d	-0.0067863674
28	0xbd710b38	-0.05884859
29	0xbdcf3c0a	-0.101188734
30	0x3d1100a2	0.035400994
31	0xbd909050	-0.070587754
32	0xbc72d60f	-0.014821543
33	0xbdb0f12e	-0.086397514
34	0x3b9d91b8	0.004808631
35	0x3c97edf9	0.018546091
36	0xbd845756	-0.064619705
37	0xbd549ccb	-0.051907342
38	0xbcfd0987	-0.030888332
39	0x3ce7b7a4	0.028285809
40	0xbd0f3b7c	-0.034968838
41	0x3d6d8886	0.057991527
42	0xbd13b87d	-0.036064614
43	0xbd9191a6	-0.07107858
44	0xbd1ec97f	-0.03876638
45	0xbd4f1107	-0.050553348
46	0x3cd69977	0.026196225
47	0xbc660ec0	-0.014041603
48	0xbcbb50c3	-0.022865659
49	0xbd4f56d3	-0.05061991
50	0x3c968507	0.01837398
51	0x3ce826ad	0.028338755
52	0x3c079b28	0.008276738
53	0x3c60c533	0.013718891
54	0xbcf96f52	-0.03044859
55	0x3ba84e1a	0.0051362636
56	0x3da1fca3	0.07909515
57	0xbd6f4814	-0.05841835
58	0xbd959d9e	-0.07305454
59	0xbd3c24d9	-0.04593358
60	0xbd6f0af6	-0.058360063
61	0x3d99a2cb	0.075017534
62	0xbd5311ef	-0.051530775
63	0x3c02762d	0.007962746
64	0x3d0cf0ef	0.03440946
65	0x3dce929f	0.100865595
66	0xbac377e8	-0.0014913054
67	0xbc0e336b	-0.008679251
68	0x3d880224	0.06641033
69	0x3d972c19	0.07381458
70	0xbd06bb61	-0.032893542
71	0x3d2b1293	0.04176576
72	0xbddf06f9	-0.10890002
73	0xbd5916c8	-0.05300024
74	0xbd92b347	-0.07163101
75	0xbcfaf9ba	-0.030636657
76	0xbd0a9526	-0.033833645
77	0xbd74b795	-0.05974539
78	0x3d4d0965	0.050057787
79	0x3d5749c3	0.05256058
80	0xbd8de008	-0.06927496
81	0xbc9cbf90	-0.019134313
82	0xbda76395	-0.08173291
83	0xbca923a7	-0.020646883
84	0xbdd2eaca	-0.10298689
85	0xbd99c66b	-0.07508548
86	0xbddb7e69	-0.1071747
87	0xbdb54b31	-0.08852232
88	0xbda6fbbf	-0.081534855
89	0xbcd600a7	-0.026123358
90	0xbc2bc527	-0.0104840165
91	0xbcd6150d	-0.026133085
92	0x3b347050	0.0027532764
93	0x3d36d2c4	0.044634596
94	0x3d2be786	0.041968845
95	0x3d39877c	0.045295224
96	0x3ca4b37c	0.020105116
97	0xbd16d57a	-0.03682468
98	0xbd8d4e14	-0.06899658
99	0x3a7a1730	0.00095401984

layers.2.weight f4 [1, 100]
0	0xbabd4cc4	-0.0014442434
1	0x3d297bb1	0.041377727
2	0xbd878216	-0.06616609
3	0x3d47613a	0.048676707
4	0x3d2b15e0	0.04176891
5	0xbd8b7051	-0.06808532
6	0x3d897455	0.06711642
7	0xba550c05	-0.0008127096
8	0xba617ce2	-0.0008601678
9	0x3d4dfd1e	0.05029022
10	0xbdb575d0	-0.088603616
11	0xbccc2bb9	-0.024923192
12	0x3d15561d	0.036459077
13	0xbccaaa94	-0.024739541
14	0x3d31bbd0	0.043392003
15	0xbc977fac	-0.018493496
16	0xbdaa4b67	-0.08315163
17	0xbd8ef14d	-0.06979618
18	0xbd9ea42c	-0.07746157
19	0xbc426542	-0.011864962
20	0xbd539390	-0.0516544
21	0x3d8da683	0.06916525
22	0x3d829b17	0.06377237
23	0x3c776404	0.015099529
24	0x3b57633f	0.0032865552
25	0x3d88e585	0.066844024
26	0x3b5aff8b	0.0033416476
27	0xbd733fd2	-0.059387036
28	0x3a8bbde1	0.0010661447
29	0x3c9b88c4	0.018986113
30	0x3ce8221d	0.028336579
31	0x3d63164b	0.055441182
32	0xba271e2a	-0.0006375039
33	0x3cc39e9c	0.023879342
34	0x3d6e8ca5	0.058239598
35	0xbd9cba25	-0.07652692
36	0xbbf0d252	-0.007349291
37	0x3db3b663	0.08775022
38	0xbd9df2c2	-0.07712318
39	0xbc5395a4	-0.012914095
40	0x3d9b1b41	0.07573558
41	0xbc245257	-0.010029397
42	0xbc2ce218	-0.010551952
43	0x3d828793	0.06373515
44	0x3a60e080	0.0008578375
45	0x3ccc4ff3	0.024940467
46	0xbd670144	-0.05639769
47	0x3bf22197	0.007389258
48	0xbc616424	-0.013756786
49	0xbd4fc321	-0.0507232
50	0x3b72646b	0.0036986123
51	0x3dbca0d9	0.09210367
52	0x3cef4c11	0.029211076
53	0x3a3efa67	0.00072852377
54	0xbbcae04a	-0.006191288
55	0x3d8611bb	0.065463506
56	0x3da3f4e6	0.08005695
57	0x3d05f3fb	0.03270338
58	0x3da032f6	0.0782222
59	0xbb3c2d64	-0.0028713578
60	0xbdad463c	-0.08460662
61	0x3da586ab	0.080823265
62	0xbce6547e	-0.02811646
63	0xbd834007	-0.064086966
64	0x3b143e04	0.0022619972
65	0x3c7ea3d3	0.015541988
66	0x3c9cc6cc	0.019137762
67	0xbda0c58f	-0.07850181
68	0xbae5e8fd	-0.0017540749
69	0xbcdeea06	-0.0272112
70	0x3d41098e	0.047128253
71	0xbd2cc59e	-0.04218065
72	0xbd25b900	-0.040459633
73	0xbd980a89	-0.074238844
74	0x3d88a931	0.06672896
75	0xbd1f995d	-0.038964618
76	0x3c38b941	0.011274637
77	0xbd653f43	-0.055968534
78	0x3d2188fb	0.039437275
79	0x3baa7edb	0.0052031106
80	0xbd25e3e5	-0.04050054
81	0xbb195d6e	-0.0023401636
82	0x3d4d9e77	0.050199952
83	0xbd9749d1	-0.07387126
84	0x3b746f29	0.0037297702
85	0x3d81fa3c	0.063465565
86	0x3d3d12e3	0.04616059
87	0xbdd33fbe	-0.10314892
88	0x3cd069f8	0.025441155
89	0x3da351f5	0.079746164
90	0xbd20625d	-0.039156307
91	0xbcf0489d	-0.0293315
92	0x3d4230ec	0.047409937
93	0xbd68c401	-0.05682755
94	0x3cd86125	0.02641351
95	0x3d78a560	0.06070459
96	0x3d94b2f0	0.07260692
97	0x3d5c377c	0.05376385
98	0x3db1ab98	0.08675307
99	0xbd7a7047	-0.061142232
